asl_dataset/W/W_20241208_181415_970151.npy (npy, 632 bytes, 1 tensors)

array f8 [21, 3]
00000000: 0000 00a0 13c8 e13f 0000 0020 6615 f03f
00000010: 0000 0080 e1a2 a83e 0000 0040 e72e e33f
00000020: 0000 0040 319f ed3f 0000 0040 b851 a1bf
00000030: 0000 00e0 e663 e33f 0000 00c0 a199 e93f
00000040: 0000 0080 0eea a5bf 0000 0060 6281 e13f
00000050: 0000 0060 0c7b e73f 0000 00c0 cffa a7bf
00000060: 0000 00e0 4727 df3f 0000 0040 35b5 e63f
00000070: 0000 00a0 7a4c aabf 0000 0040 fcef e23f
00000080: 0000 0080 a10a e43f 0000 00e0 fc51 93bf
00000090: 0000 0060 6d84 e33f 0000 0000 11c1 de3f
000000a0: 0000 00a0 08cb 9dbf 0000 0040 4bc7 e33f
000000b0: 0000 0000 7af8 d83f 0000 0060 05f1 a3bf
000000c0: 0000 0080 fecd e33f 0000 00a0 e6c6 d33f
000000d0: 0000 0040 1e96 a8bf 0000 0000 c244 e13f
000000e0: 0000 0060 3fe2 e33f 0000 0040 c8ef 93bf
000000f0: 0000 0060 43d6 e03f 0000 0080 174e dd3f
00000100: 0000 0060 c05c 9bbf 0000 0040 3578 e03f
00000110: 0000 0040 cad2 d63f 0000 0060 de5d a5bf
00000120: 0000 0040 7704 e03f 0000 0000 a875 d13f
00000130: 0000 0080 6236 abbf 0000 0080 edfa df3f
00000140: 0000 0000 0c1c e53f 0000 00c0 588e 98bf
00000150: 0000 0040 25cc dd3f 0000 0000 cf05 e13f
00000160: 0000 00c0 4215 a9bf 0000 00a0 b88f dc3f
00000170: 0000 00e0 5eb4 db3f 0000 0020 dec8 b4bf
00000180: 0000 00e0 3823 db3f 0000 00c0 b76e d63f
00000190: 0000 0020 508a babf 0000 00a0 d21a de3f
000001a0: 0000 0080 6d2b e73f 0000 0020 f4d5 9ebf
000001b0: 0000 0080 0071 de3f 0000 0080 a77c e53f
000001c0: 0000 0060 cedd b0bf 0000 0080 4ef6 df3f
000001d0: 0000 0040 0e13 e73f 0000 0020 69e8 b4bf
000001e0: 0000 00c0 f465 e03f 0000 0000 c7e6 e83f
000001f0: 0000 0000 bcfe b6bf
0.5556734204292297 1.005224347114563 7.342175649682758e-07 0.5994755029678345 0.9256826639175415 -0.03382659703493118 0.6059450507164001 0.8000038862228394
-0.04280133545398712 0.5470439791679382 0.7337705492973328 -0.046835415065288544 0.4867725074291229 0.7096201181411743 -0.05136473849415779 0.5917950868606567
0.6262977123260498 -0.01886744610965252 0.6099154353141785 0.4805338382720947 -0.029094824567437172 0.6180778741836548 0.3901658058166504 -0.038948219269514084
0.6188957691192627 0.3090149462223053 -0.04802031069993973 0.5396432876586914 0.6213681101799011 -0.019469384104013443 0.5261551737785339 0.4578913450241089
-0.026721006259322166 0.5146738290786743 0.3566156029701233 -0.041731785982847214 0.5005451440811157 0.27280616760253906 -0.05314929783344269 0.4996904134750366
0.6596736907958984 -0.023980509489774704 0.46558505296707153 0.531959056854248 -0.04899033159017563 0.4462720453739166 0.43288394808769226 -0.08118999749422073
0.4240247905254364 0.3505076766014099 -0.10367298871278763 0.47038713097572327 0.7240512371063232 -0.030113043263554573 0.47564709186553955 0.671466588973999
-0.06588449329137802 0.4994083642959595 0.7210761308670044 -0.08167130500078201 0.5124458074569702 0.7781710624694824 -0.08982443809509277
