asl_dataset/W/W_20241208_181408_231040.npy (npy, 632 bytes, 1 tensors)

array f8 [21, 3]
000000 00 00 00 60 1d f1 d0 3f 00 00 00 a0 52 f3 e8 3f
       0.2647164762020111 0.7797024846076965
000010 00 00 00 40 50 48 a5 3e 00 00 00 80 d4 01 d4 3f
       6.342671667880495e-07 0.3126116991043091
000020 00 00 00 80 79 13 e7 3f 00 00 00 c0 0b 58 9f bf
       0.7211272716522217 -0.030609305948019028
000030 00 00 00 a0 2d f2 d4 3f 00 00 00 c0 a1 38 e3 3f
       0.3272813856601715 0.6006630659103394
000040 00 00 00 80 76 37 a2 bf 00 00 00 e0 be cb d1 3f
       -0.03557939827442169 0.278060644865036
000050 00 00 00 00 31 8f e0 3f 00 00 00 20 2a 8e a1 bf
       0.517479419708252 -0.03428775444626808
000060 00 00 00 80 42 90 cc 3f 00 00 00 80 3d 40 df 3f
       0.22315245866775513 0.48829591274261475
000070 00 00 00 e0 aa 68 a0 bf 00 00 00 80 47 4d d5 3f
       -0.032048549503088 0.33284175395965576
000080 00 00 00 20 ab 03 de 3f 00 00 00 80 98 53 91 bf
       0.46897390484809875 -0.016920454800128937
000090 00 00 00 20 46 bb d6 3f 00 00 00 40 1c 44 d6 3f
       0.3551802933216095 0.3479071259498596
0000a0 00 00 00 20 4b fc 95 bf 00 00 00 20 14 91 d7 3f
       -0.021470235660672188 0.3682298958301544
0000b0 00 00 00 20 75 fc d1 3f 00 00 00 a0 b2 13 9a bf
       0.28103378415107727 -0.025465765967965126
0000c0 00 00 00 20 0c 1f d8 3f 00 00 00 e0 99 5a cb 3f
       0.3768949806690216 0.21370242536067963
0000d0 00 00 00 c0 ad 17 9f bf 00 00 00 80 8b 63 d2 3f
       -0.030363764613866806 0.28732573986053467
0000e0 00 00 00 20 7d df dc 3f 00 00 00 a0 3e 20 90 bf
       0.4511406719684601 -0.015748003497719765
0000f0 00 00 00 e0 7d e0 d2 3f 00 00 00 80 54 15 d4 3f
       0.2949518859386444 0.3138018846511841
000100 00 00 00 40 f8 76 92 bf 00 00 00 60 1f 25 d3 3f
       -0.018031958490610123 0.2991407811641693
000110 00 00 00 40 d6 a8 cd 3f 00 00 00 00 f3 7e 9a bf
       0.23171499371528625 -0.025874897837638855
000120 00 00 00 a0 a0 38 d3 3f 00 00 00 a0 31 91 c4 3f
       0.3003312647342682 0.16068096458911896
000130 00 00 00 c0 f9 6e a0 bf 00 00 00 00 f4 c7 cf 3f
       -0.03209667652845383 0.2482895851135254
000140 00 00 00 e0 5c 34 de 3f 00 00 00 e0 ef e1 92 bf
       0.47194597125053406 -0.018440006300807
000150 00 00 00 c0 98 c1 cc 3f 00 00 00 e0 f4 81 d6 3f
       0.22465810179710388 0.3516819179058075
000160 00 00 00 40 98 80 a4 bf 00 00 00 40 9b 28 cb 3f
       -0.04004359990358353 0.21217671036720276
000170 00 00 00 a0 fd e9 d0 3f 00 00 00 40 d2 e9 b0 bf
       0.26428166031837463 -0.06606782972812653
000180 00 00 00 00 79 23 c9 3f 00 00 00 c0 5d 07 c8 3f
       0.19639503955841064 0.18772479891777039
000190 00 00 00 e0 cb 5f b5 bf 00 00 00 00 c8 c7 cb 3f
       -0.08349298685789108 0.21703433990478516
0001a0 00 00 00 00 88 94 e0 3f 00 00 00 20 8a ff 96 bf
       0.5181312561035156 -0.022459181025624275
0001b0 00 00 00 c0 e3 6f cd 3f 00 00 00 a0 d4 1c dd 3f
       0.2299771010875702 0.45488467812538147
0001c0 00 00 00 a0 14 f2 a9 bf 00 00 00 20 62 98 cf 3f
       -0.050675053149461746 0.24683786928653717
0001d0 00 00 00 20 08 50 e0 3f 00 00 00 60 8f 4a af bf
       0.5097694993019104 -0.061115723103284836
0001e0 00 00 00 c0 c5 06 d0 3f 00 00 00 00 40 27 e2 3f
       0.25041335821151733 0.567291259765625
0001f0 00 00 00 00 b9 08 b1 bf
       -0.06653934717178345
