asl_dataset/W/W_20241208_181404_626912.npy (npy, 632 bytes, 1 tensors)

array f8 [21, 3]
000000 00 00 00 c0 c9 1b ce 3f 00 00 00 20 af 55 ec 3f
       0.23522302508354187 0.8854594826698303
000010 00 00 00 00 9e 04 a6 3e 00 00 00 40 da 26 d2 3f
       6.561886038980447e-07 0.2836213707923889
000020 00 00 00 e0 ba 67 ea 3f 00 00 00 a0 53 84 a2 bf
       0.8251623511314392 -0.03616582229733467
000030 00 00 00 a0 2e 32 d3 3f 00 00 00 e0 8a c8 e6 3f
       0.2999378740787506 0.7119802832603455
000040 00 00 00 80 7b 13 a5 bf 00 00 00 a0 e5 e0 cf 3f
       -0.04116426408290863 0.2490508109331131
000050 00 00 00 c0 4e 6c e4 3f 00 00 00 e0 b6 40 a4 bf
       0.6382211446762085 -0.03955623134970665
000060 00 00 00 a0 0a 31 c9 3f 00 00 00 40 6a 51 e3 3f
       0.19680912792682648 0.6036883592605591
000070 00 00 00 c0 43 b8 a2 bf 00 00 00 40 4a 84 d3 3f
       -0.036562077701091766 0.3049493432044983
000080 00 00 00 20 5c ba e1 3f 00 00 00 c0 e6 ca 8a bf
       0.5539990067481995 -0.013082316145300865
000090 00 00 00 a0 5f 02 d5 3f 00 00 00 20 35 ce db 3f
       0.3282698690891266 0.43446090817451477
0000a0 00 00 00 80 f5 45 94 bf 00 00 00 e0 5f d8 d5 3f
       -0.019798122346401215 0.34133145213127136
0000b0 00 00 00 60 fa 5d d7 3f 00 00 00 a0 6e 15 9c bf
       0.36511096358299255 -0.027425507083535194
0000c0 00 00 00 a0 14 6f d6 3f 00 00 00 80 6c df d2 3f
       0.35052981972694397 0.2948867082595825
0000d0 00 00 00 60 89 09 a2 bf 00 00 00 80 4b b4 d0 3f
       -0.03522900864481926 0.26100432872772217
0000e0 00 00 00 00 e4 1a e1 3f 00 00 00 e0 bd 03 87 bf
       0.5345325469970703 -0.011237605474889278
0000f0 00 00 00 c0 8b 82 d1 3f 00 00 00 a0 ad 9e d9 3f
       0.27359288930892944 0.4003099501132965
000100 00 00 00 a0 7a b0 8c bf 00 00 00 00 9a de d1 3f
       -0.014008481986820698 0.27921152114868164
000110 00 00 00 a0 f9 49 d4 3f 00 00 00 60 21 65 99 bf
       0.3170150816440582 -0.02479984425008297
000120 00 00 00 a0 38 14 d2 3f 00 00 00 60 65 07 cf 3f
       0.2824842035770416 0.2424132078886032
000130 00 00 00 20 46 5a a1 bf 00 00 00 00 6f 37 cc 3f
       -0.03389186039566994 0.22044169902801514
000140 00 00 00 20 16 c7 e1 3f 00 00 00 e0 bf e0 8e bf
       0.5555525422096252 -0.015077113173902035
000150 00 00 00 a0 bf be c9 3f 00 00 00 a0 93 9c db 3f
       0.20113368332386017 0.43143168091773987
000160 00 00 00 80 9f 24 a4 bf 00 00 00 c0 f4 3d c8 3f
       -0.03934191167354584 0.18939074873924255
000170 00 00 00 e0 52 61 d6 3f 00 00 00 a0 78 7b b1 bf
       0.34969016909599304 -0.06829027086496353
000180 00 00 00 c0 28 6c c6 3f 00 00 00 60 6c 94 d1 3f
       0.1751757562160492 0.27468404173851013
000190 00 00 00 20 74 4b b6 bf 00 00 00 80 66 e4 c7 3f
       -0.08708883076906204 0.18665772676467896
0001a0 00 00 00 a0 fc 69 e3 3f 00 00 00 40 ea 6b 95 bf
       0.6066878437995911 -0.020919475704431534
0001b0 00 00 00 a0 ca 7d c8 3f 00 00 00 c0 d6 29 e1 3f
       0.19133885204792023 0.5363572835922241
0001c0 00 00 00 80 ce c0 aa bf 00 00 00 80 98 77 ca 3f
       -0.05225224792957306 0.2067747712135315
0001d0 00 00 00 60 bf af e2 3f 00 00 00 e0 91 97 b0 bf
       0.5839535593986511 -0.06481277197599411
0001e0 00 00 00 c0 1b fc ca 3f 00 00 00 a0 0f 51 e4 3f
       0.21081873774528503 0.6348951458930969
0001f0 00 00 00 60 b1 3a b2 bf
       -0.07120808213949203
