asl_dataset/W/W_20241208_181419_372173.npy (npy, 632 bytes, 1 tensors)

array f8 [21, 3]
0	0x3fe5036040000000	0.656662106513977
1	0x3fede84480000000	0.9346029758453369
2	0x3ea5232f60000000	6.299448500612925e-07
3	0x3fe6524520000000	0.6975427269935608
4	0x3febb2b180000000	0.865563154220581
5	0xbfa0fbd7a0000000	-0.0331714041531086
6	0x3fe6c79b00000000	0.7118659019470215
7	0x3fe7801680000000	0.7343857288360596
8	0xbfa4f08fe0000000	-0.04089784249663353
9	0x3fe5563bc0000000	0.6667765378952026
10	0x3fe4905c20000000	0.6426220536231995
11	0xbfa632b380000000	-0.04335556924343109
12	0x3fe3910000000000	0.6114501953125
13	0x3fe3807420000000	0.6094303727149963
14	0xbfa761c800000000	-0.04566788673400879
15	0x3fe683a960000000	0.7035719752311707
16	0x3fe2ef8d80000000	0.5917422771453857
17	0xbf90283280000000	-0.01577834039926529
18	0x3fe72af8c0000000	0.723995566368103
19	0x3fdd85b500000000	0.4612858295440674
20	0xbf97e13980000000	-0.02332010120153427
21	0x3fe78b3f80000000	0.7357480525970459
22	0x3fd890f880000000	0.38384830951690674
23	0xbfa07636c0000000	-0.032151900231838226
24	0x3fe7bc10a0000000	0.7417071461677551
25	0x3fd3fefe40000000	0.3124385476112366
26	0xbfa4becd80000000	-0.04051820933818817
27	0x3fe5037420000000	0.6566715836524963
28	0x3fe296ce00000000	0.5809087753295898
29	0xbf8e17e2e0000000	-0.014693996869027615
30	0x3fe4f34980000000	0.6546981334686279
31	0x3fdbf76960000000	0.4369758069515228
32	0xbf94441e20000000	-0.019791098311543465
33	0x3fe4f03100000000	0.654320240020752
34	0x3fd6250e40000000	0.3460116982460022
35	0xbfa0327300000000	-0.031634896993637085
36	0x3fe4d8ec60000000	0.6514798998832703
37	0x3fd1245d00000000	0.26784443855285645
38	0xbfa4f1ae40000000	-0.040906377136707306
39	0x3fe3be8960000000	0.6170088648796082
40	0x3fe3885640000000	0.610392689704895
41	0xbf91eef000000000	-0.017513036727905273
42	0x3fe32b7ae0000000	0.5990576148033142
43	0x3fdea0d920000000	0.4785673916339874
44	0xbfa44ab000000000	-0.039632320404052734
45	0x3fe30fa500000000	0.5956597328186035
46	0x3fd870a6c0000000	0.3818756937980652
47	0xbfb0ac4680000000	-0.06512871384620667
48	0x3fe2d18ee0000000	0.5880808234214783
49	0x3fd32e9160000000	0.2997172772884369
50	0xbfb52668c0000000	-0.08261732757091522
51	0x3fe2ab8660000000	0.5834380984306335
52	0x3fe554b980000000	0.6665923595428467
53	0xbf96806860000000	-0.021974211558699608
54	0x3fe2e7ae20000000	0.5907812714576721
55	0x3fe2c4db00000000	0.5865302085876465
56	0xbfaa849700000000	-0.05179283022880554
57	0x3fe3a9d7a0000000	0.6144827008247375
58	0x3fe3fa6da0000000	0.624319851398468
59	0xbfaf420e20000000	-0.061050835996866226
60	0x3fe418b2c0000000	0.6280149221420288
61	0x3fe5a88fe0000000	0.6768264174461365
62	0xbfb0a29a00000000	-0.06498110294342041
