asl_dataset/W/W_20241208_181418_169570.npy (npy, 632 bytes, 1 tensors)

array f8 [21, 3]
000000 00 00 00 a0 6b db e3 3f 00 00 00 00 cf f0 ec 3f
       0.6205347180366516 0.904395580291748
000010 00 00 00 a0 03 43 a1 3e 00 00 00 a0 a5 f5 e4 3f
       5.144409556123719e-07 0.6549862027168274
000020 00 00 00 40 ec c0 ea 3f 00 00 00 00 c7 7c 99 bf
       0.8360501527786255 -0.024890050292015076
000030 00 00 00 e0 6b 14 e5 3f 00 00 00 80 73 0a e7 3f
       0.6587428450584412 0.7200257778167725
000040 00 00 00 40 98 35 9d bf 00 00 00 20 a5 d2 e3 3f
       -0.02852476015686989 0.6194635033607483
000050 00 00 00 20 ca 73 e4 3f 00 00 00 a0 99 82 9d bf
       0.6391344666481018 -0.028818512335419655
000060 00 00 00 40 10 4e e2 3f 00 00 00 60 8e ac e3 3f
       0.5720292329788208 0.6148139834403992
000070 00 00 00 e0 07 17 9d bf 00 00 00 40 ad ee e4 3f
       -0.028408167883753777 0.6541353464126587
000080 00 00 00 c0 29 7f e3 3f 00 00 00 00 fc 35 4e bf
       0.609272837638855 -0.000921962782740593
000090 00 00 00 20 f8 55 e5 3f 00 00 00 80 0a 00 e0 3f
       0.6667442917823792 0.5000050067901611
0000a0 00 00 00 20 1d 7d 47 bf 00 00 00 20 eb 8e e5 3f
       -0.0007168190204538405 0.6736961007118225
0000b0 00 00 00 80 93 e8 db 3f 00 00 00 a0 bd 46 6b bf
       0.4360703229904175 -0.0033296302426606417
0000c0 00 00 00 e0 97 a6 e5 3f 00 00 00 40 9c 76 d8 3f
       0.6765860915184021 0.3822394013404846
0000d0 00 00 00 00 c5 13 7e bf 00 00 00 80 43 ac e3 3f
       -0.007343072444200516 0.6147782802581787
0000e0 00 00 00 e0 f9 6c e3 3f 00 00 00 e0 e9 af 0f 3f
       0.607052743434906 6.043846587999724e-05
0000f0 00 00 00 00 57 5a e3 3f 00 00 00 00 aa 12 df 3f
       0.6047778129577637 0.48551416397094727
000100 00 00 00 40 c1 74 62 3f 00 00 00 40 42 3f e3 3f
       0.0022529386915266514 0.601472020149231
000110 00 00 00 a0 01 9b da 3f 00 00 00 60 8c 03 66 bf
       0.41571083664894104 -0.0026872388552874327
000120 00 00 00 60 7b 22 e3 3f 00 00 00 40 5d e9 d6 3f
       0.5979592204093933 0.3579934239387512
000130 00 00 00 e0 53 4d 7e bf 00 00 00 e0 ee a3 e2 3f
       -0.007397964131087065 0.5825113654136658
000140 00 00 00 40 d9 5e e4 3f 00 00 00 00 ff 55 68 bf
       0.6365782022476196 -0.0029706936329603195
000150 00 00 00 a0 ed dc e1 3f 00 00 00 c0 f8 dd e0 3f
       0.558218777179718 0.527096152305603
000160 00 00 00 40 d6 c6 91 bf 00 00 00 40 84 a4 e1 3f
       -0.017360065132379532 0.5513325929641724
000170 00 00 00 20 f5 c9 dc 3f 00 00 00 20 54 c4 a2 bf
       0.44982650876045227 -0.036654118448495865
000180 00 00 00 60 20 57 e1 3f 00 00 00 40 d3 bf d8 3f
       0.5418855547904968 0.3867080807685852
000190 00 00 00 60 3b b9 a9 bf 00 00 00 60 42 cb e1 3f
       -0.05024133250117302 0.5560619235038757
0001a0 00 00 00 20 6e f6 e5 3f 00 00 00 20 89 6a 7e bf
       0.6863318085670471 -0.007425819057971239
0001b0 00 00 00 40 6a ce e1 3f 00 00 00 e0 9c 6a e3 3f
       0.5564471483230591 0.6067642569541931
0001c0 00 00 00 a0 e9 7c 9d bf 00 00 00 80 59 80 e2 3f
       -0.028796816244721413 0.5781676769256592
0001d0 00 00 00 20 4a 52 e4 3f 00 00 00 a0 96 17 a2 bf
       0.6350451111793518 -0.0353362150490284
0001e0 00 00 00 a0 ab fd e2 3f 00 00 00 00 06 cd e5 3f
       0.5934656262397766 0.6812772750854492
0001f0 00 00 00 20 51 b7 a3 bf
       -0.03850797191262245
