asl_dataset/W/W_20241123_174850_463672.npy (npy, 632 bytes, 1 tensors)

array f8 [21, 3]
000000 00 00 00 00 7a 0a c6 3f 00 00 00 20 85 06 e8 3f
       0.1721947193145752 0.7507959008216858
000010 00 00 00 20 86 d9 a9 3e 00 00 00 a0 4a 98 cc 3f
       7.703811775172653e-07 0.22339756786823273
000020 00 00 00 40 82 b7 e6 3f 00 00 00 00 7a a4 9f bf
       0.709900975227356 -0.03090086579322815
000030 00 00 00 00 2b 76 cf 3f 00 00 00 00 72 eb e3 3f
       0.24579370021820068 0.6224908828735352
000040 00 00 00 00 37 5e a3 bf 00 00 00 20 13 7f c8 3f
       -0.03782817721366882 0.19137801229953766
000050 00 00 00 60 b3 e2 e1 3f 00 00 00 20 9c 3f a4 bf
       0.5589234232902527 -0.03954780474305153
000060 00 00 00 20 8f 4b c1 3f 00 00 00 60 d7 f3 e0 3f
       0.13511838018894196 0.529765784740448
000070 00 00 00 c0 08 86 a5 bf 00 00 00 80 8c ad d0 3f
       -0.04203822463750839 0.26059257984161377
000080 00 00 00 00 60 30 e0 3f 00 00 00 80 d3 71 95 bf
       0.5059051513671875 -0.020942024886608124
000090 00 00 00 a0 1b e1 d2 3f 00 00 00 80 b1 11 da 3f
       0.2949894964694977 0.4073299169540405
0000a0 00 00 00 60 03 7a 9d bf 00 00 00 00 c0 09 d4 3f
       -0.02878575585782528 0.3130950927734375
0000b0 00 00 00 40 47 5d d6 3f 00 00 00 c0 5e df a1 bf
       0.349443256855011 -0.034907303750514984
0000c0 00 00 00 80 d6 ca d4 3f 00 00 00 c0 07 9a d2 3f
       0.3248802423477173 0.29065126180648804
0000d0 00 00 00 e0 fe 42 a5 bf 00 00 00 60 f4 b4 ca 3f
       -0.041526760905981064 0.20864729583263397
0000e0 00 00 00 80 b8 3a df 3f 00 00 00 c0 d6 7e 96 bf
       0.48795902729034424 -0.02196822687983513
0000f0 00 00 00 60 17 3a cc 3f 00 00 00 a0 4e bf d7 3f
       0.22052280604839325 0.37105146050453186
000100 00 00 00 00 fe 4b 9c bf 00 00 00 a0 99 50 cc 3f
       -0.027633637189865112 0.22120971977710724
000110 00 00 00 80 f7 33 d3 3f 00 00 00 40 36 b3 a4 bf
       0.30004680156707764 -0.04042977839708328
000120 00 00 00 80 21 32 cc 3f 00 00 00 40 fe ea cd 3f
       0.22027987241744995 0.2337339222431183
000130 00 00 00 20 f6 57 a9 bf 00 00 00 a0 4a 14 c5 3f
       -0.04949921742081642 0.16468174755573273
000140 00 00 00 80 22 32 e0 3f 00 00 00 00 e3 9b 9a bf
       0.506119966506958 -0.02598528563976288
000150 00 00 00 60 80 da c1 3f 00 00 00 00 ea 08 da 3f
       0.13948063552379608 0.40679407119750977
000160 00 00 00 20 52 f8 aa bf 00 00 00 20 44 11 bf 3f
       -0.05267578735947609 0.12135720998048782
000170 00 00 00 c0 bb 5e d5 3f 00 00 00 e0 be 32 b5 bf
       0.3339070677757263 -0.0828055664896965
000180 00 00 00 40 a0 f3 ba 3f 00 00 00 20 34 dd d0 3f
       0.10527993738651276 0.26350119709968567
000190 00 00 00 a0 96 31 ba bf 00 00 00 80 19 80 c0 3f
       -0.1023191586136818 0.12890928983688354
0001a0 00 00 00 40 ea 8e e1 3f 00 00 00 c0 d6 74 9f bf
       0.5486956834793091 -0.03071914240717888
0001b0 00 00 00 40 13 25 c1 3f 00 00 00 00 c9 65 e0 3f
       0.13394394516944885 0.5124249458312988
0001c0 00 00 00 00 76 c2 b0 bf 00 00 00 40 78 fd c2 3f
       -0.0654672384262085 0.14836028218269348
0001d0 00 00 00 a0 35 10 e2 3f 00 00 00 80 a2 c3 b3 bf
       0.5644786953926086 -0.0772038996219635
0001e0 00 00 00 a0 64 36 c4 3f 00 00 00 60 16 94 e3 3f
       0.15790994465351105 0.6118270754814148
0001f0 00 00 00 e0 3e ff b4 bf
       -0.08201973885297775
