asl_dataset/W/W_20241208_181402_334119.npy (npy, 632 bytes, 1 tensors)

array f8 [21, 3]
000000 00 00 00 e0 1d cc d0 3f 00 00 00 80 3d f9 ef 3f
       0.26245829463005066 0.9991748332977295
000010 00 00 00 40 2f 2e a9 3e 00 00 00 a0 99 b1 d3 3f
       7.504346513087512e-07 0.3077148497104645
000020 00 00 00 80 f7 05 ee 3f 00 00 00 20 38 dc 9a bf
       0.9382283687591553 -0.026230694726109505
000030 00 00 00 40 5f de d4 3f 00 00 00 20 8c 9c ea 3f
       0.3260725140571594 0.8316097855567932
000040 00 00 00 c0 7c af a0 bf 00 00 00 00 b0 bf d1 3f
       -0.032588861882686615 0.2773246765136719
000050 00 00 00 60 7b 7f e8 3f 00 00 00 00 c6 0b a2 bf
       0.7655617594718933 -0.035246074199676514
000060 00 00 00 20 6d df cc 3f 00 00 00 00 70 87 e7 3f
       0.22556842863559723 0.7352828979492188
000070 00 00 00 e0 fe 32 a3 bf 00 00 00 00 47 0a d5 3f
       -0.037498440593481064 0.3287522792816162
000080 00 00 00 80 b9 b3 e5 3f 00 00 00 40 e7 95 8a bf
       0.6781890392303467 -0.012981230393052101
000090 00 00 00 60 11 b6 d6 3f 00 00 00 00 79 ce e1 3f
       0.3548625409603119 0.5564541816711426
0000a0 00 00 00 20 a2 b5 91 bf 00 00 00 20 ee 9e d7 3f
       -0.017294438555836678 0.36907532811164856
0000b0 00 00 00 60 2e 17 df 3f 00 00 00 60 6d 4f 95 bf
       0.48578986525535583 -0.020810803398489952
0000c0 00 00 00 00 48 12 d8 3f 00 00 00 a0 35 b7 da 3f
       0.3761157989501953 0.4174322187900543
0000d0 00 00 00 60 bf b3 99 bf 00 00 00 c0 d3 25 d2 3f
       -0.025099745020270348 0.28355878591537476
0000e0 00 00 00 20 68 2e e5 3f 00 00 00 40 fc ed 8c bf
       0.6619148850440979 -0.014125796034932137
0000f0 00 00 00 a0 23 ee d2 3f 00 00 00 80 5e bf e0 3f
       0.2957848608493805 0.5233604907989502
000100 00 00 00 80 e0 31 92 bf 00 00 00 a0 32 47 d3 3f
       -0.017768390476703644 0.301220566034317
000110 00 00 00 80 96 3e dc 3f 00 00 00 c0 d1 0f 9a bf
       0.4413200616836548 -0.025450970977544785
000120 00 00 00 80 62 4f d3 3f 00 00 00 e0 a4 ac d7 3f
       0.3017202615737915 0.36991235613822937
000130 00 00 00 20 37 c9 9f bf 00 00 00 80 c7 42 cf 3f
       -0.031041013076901436 0.24422544240951538
000140 00 00 00 60 b2 da e5 3f 00 00 00 c0 74 3c 93 bf
       0.6829463839530945 -0.01878530904650688
000150 00 00 00 20 9e fd cb 3f 00 00 00 a0 09 1e e2 3f
       0.21867729723453522 0.5661666989326477
000160 00 00 00 e0 ae 4e a4 bf 00 00 00 c0 ab 0c ca 3f
       -0.03966280445456505 0.20351168513298035
000170 00 00 00 80 49 f3 de 3f 00 00 00 e0 bb 03 b0 bf
       0.48359906673431396 -0.06255697458982468
000180 00 00 00 20 37 f6 c7 3f 00 00 00 60 88 7f da 3f
       0.1872013956308365 0.414033979177475
000190 00 00 00 40 db c3 b3 bf 00 00 00 a0 e9 d3 ca 3f
       -0.0772072821855545 0.2095920592546463
0001a0 00 00 00 40 b8 50 e7 3f 00 00 00 40 f1 2c 99 bf
       0.7286034822463989 -0.024585504084825516
0001b0 00 00 00 60 f2 db cb 3f 00 00 00 e0 e8 40 e5 3f
       0.21764974296092987 0.6641735434532166
0001c0 00 00 00 40 2c bb a9 bf 00 00 00 80 4b f7 cd 3f
       -0.050256140530109406 0.23410934209823608
0001d0 00 00 00 80 c2 f1 e6 3f 00 00 00 40 13 a4 ad bf
       0.7170116901397705 -0.05789241939783096
0001e0 00 00 00 e0 1b 1c cf 3f 00 00 00 00 e1 c4 e8 3f
       0.24304531514644623 0.7740330696105957
0001f0 00 00 00 40 f9 29 af bf
       -0.06086710840463638
