asl_dataset/W/W_20241208_181416_634052.npy (npy, 632 bytes, 1 tensors)

array f8 [21, 3]
0.5984320044517517 0.9426019191741943 5.563381364481756e-07 0.6358395218849182 0.8617383241653442 -0.02859540656208992 0.6373527646064758 0.7403144240379333
-0.03011450357735157 0.5885053873062134 0.6671615839004517 -0.026359179988503456 0.5348727703094482 0.6475582718849182 -0.021317727863788605 0.6294806599617004
0.6034712791442871 -0.004930767696350813 0.642656147480011 0.4728211760520935 -0.006586832460016012 0.6496617197990417 0.4005979597568512 -0.010820887982845306
0.6520091891288757 0.334065705537796 -0.01592809334397316 0.5858844518661499 0.6010090708732605 -0.0034945844672620296 0.5755565762519836 0.46461132168769836
-0.00243691960349679 0.5692469477653503 0.38379138708114624 -0.01131212618201971 0.5624220371246338 0.3174150586128235 -0.01895032823085785 0.5507684946060181
0.6343729496002197 -0.006421152967959642 0.5216863751411438 0.5200410485267639 -0.023538019508123398 0.5075091123580933 0.4335365295410156 -0.049031708389520645
0.49037590622901917 0.35769253969192505 -0.06676357984542847 0.5256017446517944 0.6934770941734314 -0.01087453868240118 0.5285269618034363 0.6133443713188171
-0.03467262536287308 0.5528359413146973 0.6494539976119995 -0.04309665411710739 0.5671209692955017 0.7033399343490601 -0.04735896736383438
00000000: 0000 00e0 5a26 e33f 0000 0080 cb29 ee3f
00000010: 0000 0080 e8aa a23e 0000 0020 cc58 e43f
00000020: 0000 0040 5c93 eb3f 0000 0040 1d48 9dbf
00000030: 0000 00a0 3165 e43f 0000 00e0 a7b0 e73f
00000040: 0000 0020 56d6 9ebf 0000 0040 09d5 e23f
00000050: 0000 0040 6359 e53f 0000 00a0 e6fd 9abf
00000060: 0000 0080 ad1d e13f 0000 0020 ccb8 e43f
00000070: 0000 0080 50d4 95bf 0000 00a0 b424 e43f
00000080: 0000 0000 a34f e33f 0000 00e0 4832 74bf
00000090: 0000 00a0 a390 e43f 0000 00c0 b342 de3f
000000a0: 0000 0060 cbfa 7abf 0000 0060 07ca e43f
000000b0: 0000 00a0 65a3 d93f 0000 0000 4329 86bf
000000c0: 0000 0060 42dd e43f 0000 0020 5561 d53f
000000d0: 0000 0040 744f 90bf 0000 00c0 90bf e23f
000000e0: 0000 0060 773b e33f 0000 00c0 aca0 6cbf
000000f0: 0000 00a0 f56a e23f 0000 0020 31bc dd3f
00000100: 0000 0040 97f6 63bf 0000 0060 4537 e23f
00000110: 0000 00c0 0990 d83f 0000 00e0 cf2a 87bf
00000120: 0000 0080 5cff e13f 0000 0040 8750 d43f
00000130: 0000 0000 b767 93bf 0000 0040 e59f e13f
00000140: 0000 0080 c84c e43f 0000 0020 114d 7abf
00000150: 0000 00a0 a7b1 e03f 0000 0020 2da4 e03f
00000160: 0000 00c0 591a 98bf 0000 00c0 833d e03f
00000170: 0000 0000 10bf db3f 0000 0020 af1a a9bf
00000180: 0000 00a0 5162 df3f 0000 0040 6fe4 d63f
00000190: 0000 0000 6b17 b1bf 0000 00c0 bad1 e03f
000001a0: 0000 00e0 f630 e63f 0000 00e0 6345 86bf
000001b0: 0000 0060 b1e9 e03f 0000 0060 84a0 e33f
000001c0: 0000 0040 9cc0 a1bf 0000 0000 d5b0 e13f
000001d0: 0000 00c0 53c8 e43f 0000 00c0 c310 a6bf
000001e0: 0000 00e0 da25 e23f 0000 00c0 c281 e63f
000001f0: 0000 0040 6f3f a8bf
