asl_dataset/W/W_20241208_181402_829484.npy (npy, 632 bytes, 1 tensors)

array f8 [21, 3]
000000 00 00 00 60 87 ae cf 3f 00 00 00 80 58 3f ed 3f
       0.24751369655132294 0.913982629776001
000010 00 00 00 00 d8 f1 a8 3e 00 00 00 20 44 e8 d2 3f
       7.434100552927703e-07 0.2954263985157013
000020 00 00 00 e0 16 3f eb 3f 00 00 00 60 60 05 a0 bf
       0.8514513373374939 -0.031291019171476364
000030 00 00 00 c0 0c 10 d4 3f 00 00 00 20 96 c1 e7 3f
       0.31347960233688354 0.7423811554908752
000040 00 00 00 00 2c 09 a4 bf 00 00 00 60 52 e6 d0 3f
       -0.03913247585296631 0.2640577256679535
000050 00 00 00 40 75 8c e5 3f 00 00 00 60 8e ca a5 bf
       0.6733957529067993 -0.04256100580096245
000060 00 00 00 60 88 e5 ca 3f 00 00 00 60 2c 83 e4 3f
       0.2101297825574875 0.6410123705863953
000070 00 00 00 a0 25 32 a7 bf 00 00 00 00 79 fd d3 3f
       -0.04530446603894234 0.3123457431793213
000080 00 00 00 20 c5 da e2 3f 00 00 00 20 f1 42 8e bf
       0.5892053246498108 -0.014776119031012058
000090 00 00 00 40 cd 69 d5 3f 00 00 00 40 39 8c dd 3f
       0.3345826268196106 0.46168357133865356
0000a0 00 00 00 20 bb 72 96 bf 00 00 00 00 34 4d d6 3f
       -0.02192203886806965 0.3484621047973633
0000b0 00 00 00 c0 c6 f7 d8 3f 00 00 00 20 f6 20 9d bf
       0.39012306928634644 -0.028446050360798836
0000c0 00 00 00 60 c6 c9 d6 3f 00 00 00 40 18 66 d4 3f
       0.3560653626918793 0.3187313675880432
0000d0 00 00 00 a0 d8 02 a2 bf 00 00 00 40 b9 28 d1 3f
       -0.035177964717149734 0.26811057329177856
0000e0 00 00 00 80 a8 5c e2 3f 00 00 00 c0 5e 7e 8f bf
       0.5738108158111572 -0.015377750620245934
0000f0 00 00 00 e0 50 f3 d1 3f 00 00 00 60 29 cf db 3f
       0.28047582507133484 0.4345191419124603
000100 00 00 00 e0 68 0f 96 bf 00 00 00 20 ec 39 d2 3f
       -0.02154315821826458 0.28478530049324036
000110 00 00 00 00 36 38 d6 3f 00 00 00 e0 63 3c a1 bf
       0.3471808433532715 -0.03366386517882347
000120 00 00 00 c0 a6 26 d2 3f 00 00 00 a0 bd 48 d1 3f
       0.2836090922355652 0.27006474137306213
000130 00 00 00 80 70 39 a6 bf 00 00 00 80 ec 4d cd 3f
       -0.043406978249549866 0.22894054651260376
000140 00 00 00 e0 8c 13 e3 3f 00 00 00 60 00 e2 94 bf
       0.5961365103721619 -0.020393377169966698
000150 00 00 00 80 7c 3c ca 3f 00 00 00 e0 d2 8f de 3f
       0.20497089624404907 0.47752830386161804
000160 00 00 00 a0 9b 20 a7 bf 00 00 00 80 5f 23 c8 3f
       -0.045170653611421585 0.1885794997215271
000170 00 00 00 e0 38 1a d9 3f 00 00 00 00 0f ae b2 bf
       0.3922254741191864 -0.07296842336654663
000180 00 00 00 20 70 b4 c5 3f 00 00 00 c0 12 71 d4 3f
       0.16956903040409088 0.31940144300460815
000190 00 00 00 00 f0 5f b7 bf 00 00 00 c0 21 d2 c8 3f
       -0.0913076400756836 0.19391271471977234
0001a0 00 00 00 e0 1f 87 e4 3f 00 00 00 e0 7d 83 9b bf
       0.6414946913719177 -0.02686878852546215
0001b0 00 00 00 00 6c db c9 3f 00 00 00 e0 76 24 e2 3f
       0.20200872421264648 0.5669512152671814
0001c0 00 00 00 00 98 00 ad bf 00 00 00 e0 cd 27 cc 3f
       -0.05664515495300293 0.21996472775936127
0001d0 00 00 00 c0 49 90 e3 3f 00 00 00 60 ac 65 b1 bf
       0.6113632917404175 -0.06795766204595566
0001e0 00 00 00 80 cd 36 cd 3f 00 00 00 c0 50 23 e5 3f
       0.22823494672775269 0.6605609655380249
0001f0 00 00 00 00 4b f3 b2 bf
       -0.07402485609054565
