asl_dataset/W/W_20241123_174852_698737.npy (npy, 632 bytes, 1 tensors)

array f8 [21, 3]
00000000: 0000 0000 8de5 c63f 0000 0040 54bf e73f
00000010: 0000 0020 f5e0 a83e 0000 0080 1fad cd3f
00000020: 0000 0080 e474 e63f 0000 0000 f6ed 9bbf
00000030: 0000 00e0 c767 d03f 0000 0020 2f8d e33f
00000040: 0000 00c0 e7b7 a0bf 0000 00a0 5d39 ca3f
00000050: 0000 0080 d75d e13f 0000 0040 0051 a1bf
00000060: 0000 0000 9e35 c33f 0000 0060 0f4e e03f
00000070: 0000 0060 8f6c a2bf 0000 00c0 6f44 d13f
00000080: 0000 0060 fcad df3f 0000 00a0 355a 91bf
00000090: 0000 00c0 5634 d33f 0000 0040 893a d93f
000000a0: 0000 00c0 b48a 98bf 0000 0040 1c45 d43f
000000b0: 0000 0060 6579 d53f 0000 00a0 070f 9ebf
000000c0: 0000 00a0 8df7 d43f 0000 00c0 21b3 d13f
000000d0: 0000 00c0 f724 a2bf 0000 00c0 4dd9 cb3f
000000e0: 0000 00a0 2482 de3f 0000 00a0 d412 94bf
000000f0: 0000 0040 d342 cd3f 0000 0080 7718 d73f
00000100: 0000 00c0 b36f 9abf 0000 0040 a7a1 cd3f
00000110: 0000 0040 a37e d23f 0000 0080 16b3 a3bf
00000120: 0000 0020 56cf cd3f 0000 00c0 7393 cc3f
00000130: 0000 00c0 a132 a8bf 0000 00e0 bc16 c63f
00000140: 0000 0040 58b0 df3f 0000 0020 0cae 99bf
00000150: 0000 0080 022e c33f 0000 0040 6d31 d93f
00000160: 0000 00c0 90d2 aabf 0000 0080 6637 c13f
00000170: 0000 00a0 8c7b d43f 0000 0080 974b b5bf
00000180: 0000 0060 4ac0 be3f 0000 0040 1111 d03f
00000190: 0000 0020 326d babf 0000 0040 f246 c13f
000001a0: 0000 00e0 2431 e13f 0000 0000 029d 9fbf
000001b0: 0000 00a0 3ccb c23f 0000 0040 e91e e03f
000001c0: 0000 0000 d1e3 b0bf 0000 0000 00cb c43f
000001d0: 0000 0000 55c9 e13f 0000 0040 6631 b4bf
000001e0: 0000 0080 4afb c53f 0000 00c0 4f49 e33f
000001f0: 0000 0060 a8b7 b5bf
0.17888033390045166 0.7421056032180786 7.414442393383069e-07 0.23184579610824585 0.7017691135406494 -0.02727493643760681 0.2563342750072479 0.6109843850135803
-0.0326530858874321 0.2048756629228592 0.5427052974700928 -0.03382111340761185 0.15007376670837402 0.5095288157463074 -0.035984497517347336 0.2698020339012146
0.49499425292015076 -0.01694568432867527 0.30006951093673706 0.3941977620124817 -0.023966621607542038 0.3167181611061096 0.3355344235897064 -0.029354209080338478
0.32760944962501526 0.2765583395957947 -0.03543829172849655 0.21756908297538757 0.4766933023929596 -0.019603082910180092 0.2286018431186676 0.36086833477020264
-0.02581673488020897 0.23149576783180237 0.28897935152053833 -0.03847570717334747 0.23288990557193756 0.2232498824596405 -0.04726129025220871 0.1725689023733139
0.4951382279396057 -0.025078000500798225 0.14984160661697388 0.39364176988601685 -0.05238773673772812 0.13450318574905396 0.32004085183143616 -0.08318468928337097
0.12012162059545517 0.2510417103767395 -0.10322869569063187 0.13497760891914368 0.5372490286827087 -0.030872374773025513 0.14682729542255402 0.5037733316421509
-0.06597620248794556 0.162445068359375 0.5558266639709473 -0.07887877523899078 0.17173129320144653 0.6026991605758667 -0.08483364433050156
