asl_dataset/W/W_20241123_174856_686991.npy (npy, 632 bytes, 1 tensors)

array f8 [21, 3]
00000000: 0000 00e0 b255 c63f 0000 00e0 8e8b e73f
00000010: 0000 0000 1275 a73e 0000 0020 5d43 cd3f
00000020: 0000 0040 b058 e63f 0000 00a0 1741 9dbf
00000030: 0000 00a0 8333 d03f 0000 0020 4485 e33f
00000040: 0000 00c0 b514 a1bf 0000 0000 0004 ca3f
00000050: 0000 00a0 c83a e13f 0000 00a0 6314 a1bf
00000060: 0000 0060 c17c c33f 0000 0020 f419 e03f
00000070: 0000 0060 284d a1bf 0000 0020 3ce4 d03f
00000080: 0000 00c0 7fce df3f 0000 0080 8e0b 92bf
00000090: 0000 0080 2ddc d23f 0000 0000 2686 d93f
000000a0: 0000 0000 5e54 99bf 0000 00e0 79e4 d33f
000000b0: 0000 0040 44dd d53f 0000 0080 dfb4 9ebf
000000c0: 0000 0020 29a3 d43f 0000 00c0 6029 d23f
000000d0: 0000 00a0 865d a2bf 0000 0000 8853 cb3f
000000e0: 0000 0060 ecb4 de3f 0000 0060 bce5 93bf
000000f0: 0000 0040 86ea cc3f 0000 0080 8b62 d73f
00000100: 0000 0060 e21f 9abf 0000 00e0 384f cd3f
00000110: 0000 0080 7cde d23f 0000 0000 062e a3bf
00000120: 0000 0000 55ad cd3f 0000 0080 0f49 cd3f
00000130: 0000 0060 0873 a7bf 0000 0000 99bc c53f
00000140: 0000 00e0 14dc df3f 0000 00c0 95ed 98bf
00000150: 0000 0080 7418 c33f 0000 0020 8569 d93f
00000160: 0000 0040 005f aabf 0000 00c0 d956 c13f
00000170: 0000 0040 10d4 d43f 0000 0000 bfb5 b4bf
00000180: 0000 0040 07ce bf3f 0000 0020 c559 d03f
00000190: 0000 0080 4187 b9bf 0000 0000 d016 c13f
000001a0: 0000 00c0 a04b e13f 0000 0060 5f83 9ebf
000001b0: 0000 00c0 1c12 c23f 0000 0040 d300 e03f
000001c0: 0000 0080 0526 b0bf 0000 00c0 0a31 c43f
000001d0: 0000 0060 d892 e13f 0000 0060 7610 b3bf
000001e0: 0000 0040 6cbd c53f 0000 0040 dd07 e33f
000001f0: 0000 0000 2562 b4bf
0.1744903177022934 0.7357859015464783 6.990821930230595e-07 0.22861827909946442 0.6983262300491333 -0.02856861986219883 0.25314417481422424 0.6100178360939026
-0.033361129462718964 0.2032470703125 0.5384257435798645 -0.033358681946992874 0.15224473178386688 0.5031681656837463 -0.03379179164767265 0.2639303505420685
0.4969787001609802 -0.017622210085392 0.2946885824203491 0.39881277084350586 -0.02473589777946472 0.310820072889328 0.3416300415992737 -0.029986850917339325
0.32245853543281555 0.2837755084037781 -0.035869795829057693 0.2134866714477539 0.47979268431663513 -0.019431060180068016 0.2259071171283722 0.36538970470428467
-0.025512253865599632 0.2289801687002182 0.29482948780059814 -0.037460505962371826 0.23185217380523682 0.22879213094711304 -0.04579950496554375 0.16981804370880127
0.49780771136283875 -0.024343814700841904 0.14918380975723267 0.3970654308795929 -0.05150604993104935 0.13546296954154968 0.3254433274269104 -0.0808982253074646
0.12423749268054962 0.2554791271686554 -0.09972009062767029 0.13350868225097656 0.5404819250106812 -0.029798021540045738 0.14117774367332458 0.5001007318496704
-0.06308016180992126 0.15774664282798767 0.5491754412651062 -0.07446994632482529 0.16984322667121887 0.5947099924087524 -0.07962256669998169
