asl_dataset/W/W_20241123_174846_076175.npy (npy, 632 bytes, 1 tensors)

array f8 [21, 3]
00000000: 0000 00c0 2b33 c43f 0000 0080 293c e83f
00000010: 0000 0060 20ac ab3e 0000 0000 1327 cb3f
00000020: 0000 0040 908e e63f 0000 0060 582b a1bf
00000030: 0000 0040 3149 cd3f 0000 00a0 9f78 e33f
00000040: 0000 0060 c7c5 a2bf 0000 0080 a610 c63f
00000050: 0000 0040 3e3b e13f 0000 0000 45d2 a0bf
00000060: 0000 0080 e614 be3f 0000 00c0 1952 e03f
00000070: 0000 0080 c6db 9cbf 0000 00c0 2531 d03f
00000080: 0000 0060 1b56 e03f 0000 0040 1b4a 92bf
00000090: 0000 0020 ac70 d23f 0000 0060 8500 da3f
000000a0: 0000 00c0 cf91 97bf 0000 0040 05af d33f
000000b0: 0000 0080 5a3c d63f 0000 00c0 d1a8 9abf
000000c0: 0000 0040 e5ad d43f 0000 00c0 2d79 d23f
000000d0: 0000 0080 d46d 9ebf 0000 0040 1720 ca3f
000000e0: 0000 0040 8182 df3f 0000 0000 60d5 8fbf
000000f0: 0000 0020 34b9 cc3f 0000 00c0 edee d73f
00000100: 0000 0020 8974 93bf 0000 00e0 c292 cd3f
00000110: 0000 00c0 5357 d33f 0000 0080 6f6c 9dbf
00000120: 0000 0000 665b ce3f 0000 0080 5b5c ce3f
00000130: 0000 0020 f9ce a1bf 0000 0020 1d64 c43f
00000140: 0000 00c0 fe2e e03f 0000 00a0 f681 91bf
00000150: 0000 00c0 1edf c03f 0000 0040 a4d4 d93f
00000160: 0000 0000 76ce a5bf 0000 00e0 ae07 bd3f
00000170: 0000 0040 d93a d53f 0000 0000 408a b2bf
00000180: 0000 0000 9851 b93f 0000 00e0 84cd d03f
00000190: 0000 0020 4227 b7bf 0000 0020 b535 bf3f
000001a0: 0000 0060 076d e13f 0000 0060 6b34 94bf
000001b0: 0000 0040 f57a bf3f 0000 0000 d823 e03f
000001c0: 0000 0040 0d49 aabf 0000 0020 3e3e c13f
000001d0: 0000 00a0 78ea e13f 0000 0060 117b afbf
000001e0: 0000 00c0 de2d c23f 0000 00e0 7595 e33f
000001f0: 0000 0020 99a7 b0bf
0.15781161189079285 0.7573440074920654 8.247008622674912e-07 0.21212995052337646 0.7049027681350708 -0.03353382274508476 0.22879615426063538 0.6084745526313782
-0.0366651825606823 0.1723831295967102 0.5384818315505981 -0.03285422921180725 0.11750641465187073 0.5100220441818237 -0.028182126581668854 0.2529997229576111
0.5105111002922058 -0.017860818654298782 0.28812697529792786 0.40628179907798767 -0.023017164319753647 0.3075574040412903 0.3474336862564087 -0.02603461965918541
0.32311373949050903 0.2886461615562439 -0.029715843498706818 0.20410433411598206 0.4923403859138489 -0.015543699264526367 0.22440196573734283 0.3739580512046814
-0.018999235704541206 0.2310412973165512 0.30220502614974976 -0.028733961284160614 0.23716425895690918 0.2371935248374939 -0.034782204777002335 0.15930522978305817
0.5057367086410522 -0.017097333446145058 0.1318090856075287 0.40360361337661743 -0.04259079694747925 0.1133984848856926 0.3317168354988098 -0.07242202758789062
0.09890127182006836 0.2625438868999481 -0.09044278413057327 0.12191326171159744 0.5445591807365417 -0.01973121426999569 0.12296994030475616 0.5043754577636719
-0.05133859068155289 0.13471199572086334 0.5598719716072083 -0.061485808342695236 0.14202484488487244 0.6119946837425232 -0.06505734473466873
