asl_dataset/W/W_20241123_174846_284753.npy (npy, 632 bytes, 1 tensors)

array f8 [21, 3]
000000 00 00 00 e0 c1 f4 c4 3f 00 00 00 a0 82 84 e8 3f
       0.16371940076351166 0.7661755681037903
000010 00 00 00 c0 68 99 ab 3e 00 00 00 80 c4 18 cc 3f
       8.225218834922998e-07 0.21950584650039673
000020 00 00 00 e0 f3 18 e7 3f 00 00 00 c0 93 4e a1 bf
       0.7217959761619568 -0.03380262106657028
000030 00 00 00 e0 f8 e9 ce 3f 00 00 00 80 df 3b e4 3f
       0.24151526391506195 0.6323087215423584
000040 00 00 00 40 a5 7c a3 bf 00 00 00 40 1a 3d c8 3f
       -0.03806034475564957 0.1893647015094757
000050 00 00 00 80 af d1 e1 3f 00 00 00 c0 d6 18 a2 bf
       0.5568463802337646 -0.03534575551748276
000060 00 00 00 00 c8 7d c1 3f 00 00 00 a0 dd 90 e0 3f
       0.13665103912353516 0.5176838040351868
000070 00 00 00 40 1b 10 a0 bf 00 00 00 40 43 4c d1 3f
       -0.031372882425785065 0.2702797055244446
000080 00 00 00 c0 c4 db e0 3f 00 00 00 e0 c2 c3 94 bf
       0.5268272161483765 -0.020278019830584526
000090 00 00 00 60 7d 22 d4 3f 00 00 00 40 6e 7a db 3f
       0.31460508704185486 0.42934757471084595
0000a0 00 00 00 00 08 20 9b bf 00 00 00 00 82 97 d5 3f
       -0.02648937702178955 0.3373723030090332
0000b0 00 00 00 80 58 ea d7 3f 00 00 00 e0 91 a5 9e bf
       0.3736783266067505 -0.029928473755717278
0000c0 00 00 00 e0 1f c9 d6 3f 00 00 00 60 a2 59 d4 3f
       0.35602566599845886 0.3179708421230316
0000d0 00 00 00 c0 52 6c a1 bf 00 00 00 20 3e 6c cc 3f
       -0.03402956575155258 0.22205330431461334
0000e0 00 00 00 40 e6 1a e0 3f 00 00 00 80 d5 21 93 bf
       0.5032836198806763 -0.01868375390768051
0000f0 00 00 00 a0 64 07 d0 3f 00 00 00 00 fe b7 d8 3f
       0.2504512369632721 0.3862299919128418
000100 00 00 00 80 18 eb 98 bf 00 00 00 e0 17 c0 d0 3f
       -0.024334318935871124 0.26172444224357605
000110 00 00 00 80 6a 2b d4 3f 00 00 00 40 bc 89 a1 bf
       0.3151499032974243 -0.034253962337970734
000120 00 00 00 a0 77 57 d1 3f 00 00 00 80 f0 1f d0 3f
       0.270963579416275 0.2519494295120239
000130 00 00 00 80 1a bd a4 bf 00 00 00 20 27 99 c6 3f
       -0.040505245327949524 0.17654885351657867
000140 00 00 00 c0 a5 6e e0 3f 00 00 00 00 4a 9c 95 bf
       0.5135067701339722 -0.021104007959365845
000150 00 00 00 e0 1b b6 c3 3f 00 00 00 80 78 f2 d9 3f
       0.15399502217769623 0.40542423725128174
000160 00 00 00 40 67 fd a8 bf 00 00 00 80 cc c4 c1 3f
       -0.04880831390619278 0.13881832361221313
000170 00 00 00 60 ec 50 d5 3f 00 00 00 40 26 13 b4 bf
       0.33306416869163513 -0.07841719686985016
000180 00 00 00 c0 a5 1a c0 3f 00 00 00 e0 2f f9 d0 3f
       0.12581321597099304 0.2652091681957245
000190 00 00 00 20 ee 92 b8 bf 00 00 00 c0 e8 95 c1 3f
       -0.09599197655916214 0.13738736510276794
0001a0 00 00 00 60 5a a8 e1 3f 00 00 00 40 79 03 99 bf
       0.5518009066581726 -0.02442731335759163
0001b0 00 00 00 e0 ee 53 c2 3f 00 00 00 e0 54 02 e0 3f
       0.14318643510341644 0.5002846121788025
0001c0 00 00 00 00 0f bc ac bf 00 00 00 c0 06 e8 c3 3f
       -0.056122273206710815 0.15551838278770447
0001d0 00 00 00 20 75 aa e1 3f 00 00 00 e0 59 c3 b0 bf
       0.5520578026771545 -0.06548082083463669
0001e0 00 00 00 c0 47 9d c4 3f 00 00 00 00 04 51 e3 3f
       0.16104981303215027 0.6036396026611328
0001f0 00 00 00 00 67 91 b1 bf
       -0.06862491369247437
