asl_dataset/W/W_20241208_181405_629958.npy (npy, 632 bytes, 1 tensors)

array f8 [21, 3]
0.23244641721248627 0.8690842390060425 6.851684020148241e-07 0.2802213728427887 0.8035562634468079 -0.034121323376894 0.29595279693603516 0.6828687787055969
-0.038306981325149536 0.24483364820480347 0.6079163551330566 -0.03597759082913399 0.19021429121494293 0.5737636089324951 -0.03200559690594673 0.30381491780281067
0.5399551391601562 -0.01091246772557497 0.3258945643901825 0.41846707463264465 -0.015307336114346981 0.33826425671577454 0.3507287800312042 -0.02046016789972782
0.34643352031707764 0.28241169452667236 -0.026488468050956726 0.25916463136672974 0.5219300389289856 -0.008999031037092209 0.2718634307384491 0.38606199622154236
-0.010158026590943336 0.27818572521209717 0.30481481552124023 -0.0194426029920578 0.2811848223209381 0.2343396246433258 -0.02716796286404133 0.21852810680866241
0.5433578491210938 -0.01248766016215086 0.19590668380260468 0.42119160294532776 -0.03584746643900871 0.18258428573608398 0.3397677540779114 -0.06493037194013596
0.1660485416650772 0.2669203281402588 -0.08380808681249619 0.18574635684490204 0.5915930271148682 -0.01765567436814308 0.1934284120798111 0.5262640118598938
-0.048719167709350586 0.20818543434143066 0.5771766901016235 -0.06187748908996582 0.21038033068180084 0.629626452922821 -0.06877207010984421
00000000: 0000 00e0 cdc0 cd3f 0000 00c0 89cf eb3f
00000010: 0000 0040 8dfd a63e 0000 00a0 25ef d13f
00000020: 0000 00a0 bbb6 e93f 0000 00a0 5978 a1bf
00000030: 0000 0000 e4f0 d23f 0000 00a0 0fda e53f
00000040: 0000 0000 f99c a3bf 0000 0080 b556 cf3f
00000050: 0000 0000 0d74 e33f 0000 00a0 a76b a2bf
00000060: 0000 0020 f158 c83f 0000 0080 455c e23f
00000070: 0000 00a0 0963 a0bf 0000 0020 b471 d33f
00000080: 0000 0000 5047 e13f 0000 00a0 4659 86bf
00000090: 0000 00e0 74db d43f 0000 0020 2ac8 da3f
000000a0: 0000 00e0 7359 8fbf 0000 0020 1fa6 d53f
000000b0: 0000 0020 5772 d63f 0000 00a0 82f3 94bf
000000c0: 0000 0080 f72b d63f 0000 0080 0813 d23f
000000d0: 0000 0000 cb1f 9bbf 0000 0040 2796 d03f
000000e0: 0000 00a0 a6b3 e03f 0000 0080 156e 82bf
000000f0: 0000 00e0 3566 d13f 0000 0060 3db5 d83f
00000100: 0000 0040 bbcd 84bf 0000 0080 cbcd d13f
00000110: 0000 0000 1682 d33f 0000 0000 c3e8 93bf
00000120: 0000 00a0 eefe d13f 0000 0040 d7fe cd3f
00000130: 0000 0020 ebd1 9bbf 0000 00a0 baf8 cb3f
00000140: 0000 0000 3063 e13f 0000 0060 2193 89bf
00000150: 0000 0060 7813 c93f 0000 00a0 cdf4 da3f
00000160: 0000 0060 995a a2bf 0000 0000 ec5e c73f
00000170: 0000 0040 c1be d53f 0000 00e0 469f b0bf
00000180: 0000 0020 1441 c53f 0000 0000 3915 d13f
00000190: 0000 0060 7274 b5bf 0000 0060 89c6 c73f
000001a0: 0000 0080 54ee e23f 0000 0040 5414 92bf
000001b0: 0000 0020 43c2 c83f 0000 00a0 27d7 e03f
000001c0: 0000 0000 b8f1 a8bf 0000 0000 d2a5 ca3f
000001d0: 0000 0040 3b78 e23f 0000 0000 68ae afbf
000001e0: 0000 0020 beed ca3f 0000 0060 e625 e43f
000001f0: 0000 00e0 0b9b b1bf
