asl_dataset/W/W_20241208_181404_698300.npy (npy, 632 bytes, 1 tensors)

array f8 [21, 3]
0	0x3fcdff3b00000000	0.2343515157699585
1	0x3fec65c860000000	0.887424647808075
2	0x3ea73faaa0000000	6.928651714588341e-07
3	0x3fd2080e40000000	0.2817416787147522
4	0x3fea6a3520000000	0.8254647850990295
5	0xbfa14a0a20000000	-0.033768001943826675
6	0x3fd3144740000000	0.298112690448761
7	0x3fe6aa4ba0000000	0.7082880139350891
8	0xbfa3d6b6a0000000	-0.03874750807881355
9	0x3fcf921b80000000	0.24664634466171265
10	0x3fe44ab420000000	0.6341190934181213
11	0xbfa3687220000000	-0.037906233221292496
12	0x3fc8bf0880000000	0.19332987070083618
13	0x3fe33c28c0000000	0.6010936498641968
14	0xbfa25c2940000000	-0.03585938364267349
15	0x3fd38dd6e0000000	0.30553218722343445
16	0x3fe1aed300000000	0.5525908470153809
17	0xbf85650c40000000	-0.010446639731526375
18	0x3fd4ffe0c0000000	0.3281175494194031
19	0x3fdbbab400000000	0.4332704544067383
20	0xbf902851c0000000	-0.015778806060552597
21	0x3fd5dc5d00000000	0.34157490730285645
22	0x3fd745b5c0000000	0.3636297583580017
23	0xbf97115be0000000	-0.02252715639770031
24	0x3fd66d6680000000	0.3504272699356079
25	0x3fd2d5c4e0000000	0.2942974269390106
26	0xbf9e6ae000000000	-0.029704570770263672
27	0x3fd0a66f60000000	0.26015838980674744
28	0x3fe10f4600000000	0.5331144332885742
29	0xbf823a1400000000	-0.008899837732315063
30	0x3fd163d940000000	0.2717192769050598
31	0x3fd97371e0000000	0.3976711928844452
32	0xbf870d2fa0000000	-0.011255619116127491
33	0x3fd1ce4720000000	0.2782151997089386
34	0x3fd4315bc0000000	0.31551259756088257
35	0xbf96094fe0000000	-0.021519897505640984
36	0x3fd20890e0000000	0.28177282214164734
37	0x3fcf02a9e0000000	0.24226878583431244
38	0xbf9eb28a80000000	-0.029977954924106598
39	0x3fcc162fe0000000	0.21942709386348724
40	0x3fe1c023c0000000	0.5547045469284058
41	0xbf89c8ec40000000	-0.012590261176228523
42	0x3fc9a1be20000000	0.20024849474430084
43	0x3fdbb0d780000000	0.4326685667037964
44	0xbfa21c60e0000000	-0.03537276014685631
45	0x3fc83482a0000000	0.18910248577594757
46	0x3fd667d6e0000000	0.35008785128593445
47	0xbfb01ccae0000000	-0.06293933838605881
48	0x3fc664fe20000000	0.1749570518732071
49	0x3fd1b78180000000	0.27682530879974365
50	0xbfb4ae9680000000	-0.0807889997959137
51	0x3fc7a61440000000	0.1847558319568634
52	0x3fe3513860000000	0.6036645770072937
53	0xbf928b8360000000	-0.018110325559973717
54	0x3fc8adcc60000000	0.19280390441417694
55	0x3fe11d40a0000000	0.5348208546638489
56	0xbfa86f28a0000000	-0.04772307351231575
57	0x3fcac33d40000000	0.20908322930335999
58	0x3fe296bf60000000	0.5809018015861511
59	0xbfae5fd640000000	-0.059324927628040314
60	0x3fcb6eba80000000	0.21431666612625122
61	0x3fe4289980000000	0.6299560070037842
62	0xbfb0a97e40000000	-0.0650862604379654
