asl_dataset/W/W_20241123_174846_649668.npy (npy, 632 bytes, 1 tensors)

array f8 [21, 3]
00000000: 0000 0000 d579 c53f 0000 0000 7176 e83f
00000010: 0000 0060 9843 ac3e 0000 00c0 d82d cc3f
00000020: 0000 00a0 f637 e73f 0000 0000 0788 a0bf
00000030: 0000 0080 a08b cf3f 0000 0080 8c63 e43f
00000040: 0000 00c0 f07a a4bf 0000 0080 1bca c83f
00000050: 0000 00e0 8d09 e23f 0000 00e0 c0a9 a5bf
00000060: 0000 00c0 d4d4 c13f 0000 0080 3ac1 e03f
00000070: 0000 00c0 4d0f a7bf 0000 0020 b5cf d13f
00000080: 0000 00a0 b5de e03f 0000 00e0 1758 96bf
00000090: 0000 0020 1cb2 d43f 0000 0060 93da db3f
000000a0: 0000 0060 7dc1 9ebf 0000 00a0 d64a d63f
000000b0: 0000 0000 be69 d83f 0000 0000 3c43 a2bf
000000c0: 0000 0080 aa8b d73f 0000 00e0 b8f8 d43f
000000d0: 0000 0080 6067 a5bf 0000 0040 0e41 cd3f
000000e0: 0000 0020 ac09 e03f 0000 0080 926f 96bf
000000f0: 0000 00a0 2340 d03f 0000 0000 21ad d83f
00000100: 0000 00c0 4406 9dbf 0000 00c0 98f9 d03f
00000110: 0000 0020 d73f d43f 0000 0060 ba6e a4bf
00000120: 0000 0080 db8a d13f 0000 00a0 2a64 d03f
00000130: 0000 00a0 d787 a8bf 0000 0040 fa52 c73f
00000140: 0000 0080 366a e03f 0000 0000 e018 9abf
00000150: 0000 00c0 add3 c43f 0000 0040 59e2 d93f
00000160: 0000 00e0 ab2a abbf 0000 0080 ed38 c33f
00000170: 0000 0000 1b11 d53f 0000 00a0 2e86 b5bf
00000180: 0000 0040 e2ce c13f 0000 00e0 36c1 d03f
00000190: 0000 0080 709c babf 0000 0000 3338 c23f
000001a0: 0000 0080 d696 e13f 0000 00c0 7995 9ebf
000001b0: 0000 0000 faf6 c23f 0000 0060 b27a e03f
000001c0: 0000 0000 45d5 b0bf 0000 00c0 d822 c43f
000001d0: 0000 00c0 0125 e23f 0000 00a0 4f73 b4bf
000001e0: 0000 00c0 e8a3 c43f 0000 0020 ccac e33f
000001f0: 0000 0080 7521 b6bf
0.16778051853179932 0.764458179473877 8.423341455454647e-07 0.22014912962913513 0.7255814671516418 -0.032287806272506714 0.2464485764503479 0.6371519565582275
-0.04000046104192734 0.19366782903671265 0.5636662840843201 -0.04231074079871178 0.13930758833885193 0.5235874652862549 -0.04503863304853439 0.27830246090888977
0.5271862149238586 -0.021820424124598503 0.32337096333503723 0.4352158010005951 -0.030034979805350304 0.3483177721500397 0.3814539909362793 -0.03566920757293701
0.3678995370864868 0.3276807963848114 -0.04180432856082916 0.2285478413105011 0.5011807084083557 -0.021909989416599274 0.2539147436618805 0.38556694984436035
-0.028344225138425827 0.26523417234420776 0.3163965046405792 -0.03990728780627251 0.2741001844406128 0.2561136782169342 -0.0479113943874836 0.18221977353096008
0.5129654407501221 -0.025485515594482422 0.16270992159843445 0.4044402241706848 -0.053059931844472885 0.1501747965812683 0.32916903495788574 -0.08407870680093765
0.13912609219551086 0.2617928683757782 -0.10394957661628723 0.1423400640487671 0.5496628284454346 -0.029867079108953476 0.1481621265411377 0.5149776339530945
-0.065754234790802 0.15731343626976013 0.5670174360275269 -0.07988450676202774 0.16125211119651794 0.6148434281349182 -0.08644804358482361
