asl_dataset/W/W_20241208_181416_135641.npy (npy, 632 bytes, 1 tensors)

array f8 [21, 3]
000000 00 00 00 e0 d4 a4 e2 3f 00 00 00 a0 90 45 ef 3f
       0.5826210379600525 0.9772418141365051
000010 00 00 00 00 24 d8 a4 3e 00 00 00 e0 60 fc e3 3f
       6.212085281731561e-07 0.6245579123497009
000020 00 00 00 00 0f c9 ec 3f 00 00 00 40 b5 c5 a1 bf
       0.899543285369873 -0.03471151739358902
000030 00 00 00 00 44 37 e4 3f 00 00 00 20 25 9a e8 3f
       0.6317462921142578 0.7688165307044983
000040 00 00 00 40 43 73 a4 bf 00 00 00 c0 63 87 e2 3f
       -0.03994188457727432 0.5790270566940308
000050 00 00 00 40 b3 24 e6 3f 00 00 00 c0 3a ec a3 bf
       0.6919800043106079 -0.03891166299581528
000060 00 00 00 a0 30 9e e0 3f 00 00 00 e0 18 4f e5 3f
       0.5193102955818176 0.6659054160118103
000070 00 00 00 40 db d6 a2 bf 00 00 00 40 32 df e3 3f
       -0.036795474588871 0.6209956407546997
000080 00 00 00 00 4f 74 e3 3f 00 00 00 c0 fa f2 8d bf
       0.607947826385498 -0.014623602852225304
000090 00 00 00 40 6d 66 e4 3f 00 00 00 e0 9a cb dd 3f
       0.6375032663345337 0.46555206179618835
0000a0 00 00 00 40 8a 28 95 bf 00 00 00 c0 54 a6 e4 3f
       -0.02066246047616005 0.6453040838241577
0000b0 00 00 00 a0 89 9f d8 3f 00 00 00 60 d3 33 9c bf
       0.38473740220069885 -0.027541449293494225
0000c0 00 00 00 a0 c1 b5 e4 3f 00 00 00 00 9b cd d3 3f
       0.6471870541572571 0.30942416191101074
0000d0 00 00 00 a0 6e d3 a1 bf 00 00 00 20 6c 4c e2 3f
       -0.03481622412800789 0.5718289017677307
0000e0 00 00 00 40 bf 4a e3 3f 00 00 00 c0 ea 9f 8c bf
       0.6028743982315063 -0.013976892456412315
0000f0 00 00 00 40 8c f8 e1 3f 00 00 00 e0 86 ce dc 3f
       0.561590313911438 0.4501053988933563
000100 00 00 00 c0 a0 66 91 bf 00 00 00 40 96 aa e1 3f
       -0.01699305698275566 0.55207359790802
000110 00 00 00 e0 c6 f1 d6 3f 00 00 00 20 0f ea 9d bf
       0.3585068881511688 -0.029213177040219307
000120 00 00 00 00 09 4c e1 3f 00 00 00 a0 7b e9 d1 3f
       0.5405316352844238 0.27987566590309143
000130 00 00 00 c0 df 14 a4 bf 00 00 00 c0 95 0f e1 3f
       -0.03922175616025925 0.5331524610519409
000140 00 00 00 60 89 6d e4 3f 00 00 00 00 28 5d 92 bf
       0.6383711695671082 -0.01793348789215088
000150 00 00 00 60 86 14 e0 3f 00 00 00 20 45 72 e0 3f
       0.5025054812431335 0.5139489769935608
000160 00 00 00 00 ef 1a a5 bf 00 00 00 20 22 13 df 3f
       -0.04122111201286316 0.48554280400276184
000170 00 00 00 60 58 ff da 3f 00 00 00 20 03 16 b2 bf
       0.4218350350856781 -0.07064837962388992
000180 00 00 00 80 e2 c3 dd 3f 00 00 00 20 5f 95 d5 3f
       0.4650808572769165 0.33724191784858704
000190 00 00 00 00 87 46 b7 bf 00 00 00 a0 dc 2d e0 3f
       -0.09091991186141968 0.5055983662605286
0001a0 00 00 00 20 d9 7c e6 3f 00 00 00 60 37 48 98 bf
       0.7027402520179749 -0.02371298335492611
0001b0 00 00 00 40 19 49 e0 3f 00 00 00 c0 2d 11 e4 3f
       0.5089231729507446 0.6270970106124878
0001c0 00 00 00 40 7a 8c ac bf 00 00 00 60 59 1d e1 3f
       -0.055759258568286896 0.5348326563835144
0001d0 00 00 00 60 6b 90 e5 3f 00 00 00 40 35 3a b1 bf
       0.6738793253898621 -0.06729443371295929
0001e0 00 00 00 e0 c7 91 e1 3f 00 00 00 c0 26 75 e7 3f
       0.5490455031394958 0.7330507040023804
0001f0 00 00 00 e0 09 a9 b2 bf
       -0.07289182394742966
