asl_dataset/B/B_20241208_175035_037344.npy (npy, 632 bytes, 1 tensors)

array f8 [21, 3]
0	0x3fdd5c6000000000	0.45876312255859375
1	0x3fe925b7e0000000	0.7858542799949646
2	0x3e998a5780000000	3.805815822488512e-07
3	0x3fe00846e0000000	0.5010103583335876
4	0x3fe68b29a0000000	0.7044876217842102
5	0xbf945ebda0000000	-0.019892657175660133
6	0x3fe06da320000000	0.5133834481239319
7	0x3fe2fd1e40000000	0.5933982133865356
8	0xbf977b9ce0000000	-0.02293248288333416
9	0x3fde529240000000	0.4737897515296936
10	0x3fe1129900000000	0.5335202217102051
11	0xbf99368ea0000000	-0.024622181430459023
12	0x3fdba46980000000	0.4319099187850952
13	0x3fe1d2efe0000000	0.556999146938324
14	0xbf9a5fd380000000	-0.025756172835826874
15	0x3fe005ca00000000	0.500706672668457
16	0x3fe0030aa0000000	0.5003712773323059
17	0x3f5e05b9e0000000	0.0018324198899790645
18	0x3fdfe9b220000000	0.49863865971565247
19	0x3fd94b2c60000000	0.39521321654319763
20	0xbf6e1c4360000000	-0.003675586311146617
21	0x3fdf8291c0000000	0.49234431982040405
22	0x3fd535df80000000	0.3314131498336792
23	0xbf8a7de900000000	-0.012935467064380646
24	0x3fdf10ac20000000	0.48539260029792786
25	0x3fd191f360000000	0.27453312277793884
26	0xbf9623a3e0000000	-0.021620331332087517
27	0x3fdde1f640000000	0.46691662073135376
28	0x3fdfc62340000000	0.49646836519241333
29	0x3f4bceeb20000000	0.0008486412116326392
30	0x3fddc12900000000	0.46491456031799316
31	0x3fd8efe940000000	0.38964301347732544
32	0xbf58c43c60000000	-0.0015116300201043487
33	0x3fdd939140000000	0.4621317982673645
34	0x3fd43dfa00000000	0.3162827491760254
35	0xbf86deb060000000	-0.011166932992637157
36	0x3fdd5ca1e0000000	0.45877882838249207
37	0x3fd0424700000000	0.2540452480316162
38	0xbf943f8060000000	-0.019773488864302635
39	0x3fdc03f440000000	0.43774133920669556
40	0x3fe08128a0000000	0.515766441822052
41	0xbf700612a0000000	-0.003912041429430246
42	0x3fdbb97680000000	0.43319475650787354
43	0x3fda7d8ac0000000	0.41391247510910034
44	0xbf80547340000000	-0.007973575964570045
45	0x3fdbd8f260000000	0.43511638045310974
46	0x3fd6178de0000000	0.34518763422966003
47	0xbf935deb00000000	-0.01891295611858368
48	0x3fdbe14a60000000	0.4356256425380707
49	0x3fd2771d40000000	0.2885201573371887
50	0xbf9c388800000000	-0.027559399604797363
51	0x3fda367100000000	0.4095728397369385
52	0x3fe1a6eec0000000	0.551627516746521
53	0xbf875ed3e0000000	-0.011411338113248348
54	0x3fd9d6b100000000	0.403728723526001
55	0x3fde10f7e0000000	0.4697856605052948
56	0xbf8fb82920000000	-0.015487977303564548
57	0x3fd9e815c0000000	0.40479034185409546
58	0x3fda79fa20000000	0.4136948883533478
59	0xbf93d1d020000000	-0.019355060532689095
60	0x3fda0487c0000000	0.40652650594711304
61	0x3fd757ff60000000	0.36474594473838806
62	0xbf97db7860000000	-0.023298149928450584
