asl_dataset/B/B_20241123_174324_693260.npy (npy, 632 bytes, 1 tensors)

array f8 [21, 3]
000000 00 00 00 00 d0 12 cc 3f 00 00 00 60 6d 08 e5 3f
       0.21932411193847656 0.6572787165641785
000010 00 00 00 80 5c 60 99 3e 00 00 00 20 cf 8b d1 3f
       3.781379973588628e-07 0.2741582691669464
000020 00 00 00 20 1e a3 e3 3f 00 00 00 20 53 29 9a bf
       0.6136618256568909 -0.025548266246914864
000030 00 00 00 20 32 ac d3 3f 00 00 00 00 25 7e e1 3f
       0.30738499760627747 0.5466485023498535
000040 00 00 00 00 3f 28 a1 bf 00 00 00 c0 6b 33 d2 3f
       -0.033510178327560425 0.2843884825706482
000050 00 00 00 e0 ac 46 df 3f 00 00 00 c0 3a 52 a4 bf
       0.4886886775493622 -0.03968986123800278
000060 00 00 00 a0 8b 02 cf 3f 00 00 00 c0 73 73 de 3f
       0.24226517975330353 0.475796639919281
000070 00 00 00 00 42 9e a7 bf 00 00 00 60 cb fb d1 3f
       -0.04612928628921509 0.2809933125972748
000080 00 00 00 00 53 81 dc 3f 00 00 00 20 d9 2e 87 bf
       0.44539332389831543 -0.011319824494421482
000090 00 00 00 c0 88 37 d2 3f 00 00 00 20 71 47 d7 3f
       0.28463953733444214 0.36373546719551086
0000a0 00 00 00 20 ca fa 98 bf 00 00 00 60 e0 16 d2 3f
       -0.024394186213612556 0.2826462686061859
0000b0 00 00 00 c0 ed 07 d4 3f 00 00 00 a0 dd 93 a3 bf
       0.3129839301109314 -0.03823750093579292
0000c0 00 00 00 e0 4e e3 d1 3f 00 00 00 e0 27 00 d1 3f
       0.27949878573417664 0.2656345069408417
0000d0 00 00 00 c0 dc 67 a9 bf 00 00 00 20 86 80 cf 3f
       -0.049620531499385834 0.246109738945961
0000e0 00 00 00 20 91 e8 db 3f 00 00 00 a0 44 8f 88 bf
       0.4360697567462921 -0.011992012150585651
0000f0 00 00 00 e0 52 0e d0 3f 00 00 00 80 1b 37 d6 3f
       0.25087425112724304 0.3471134901046753
000100 00 00 00 80 dd 27 97 bf 00 00 00 00 92 1b d0 3f
       -0.022613011300563812 0.25168275833129883
000110 00 00 00 60 55 5f d2 3f 00 00 00 e0 13 d0 a2 bf
       0.2870686948299408 -0.036743756383657455
000120 00 00 00 80 2e 13 d0 3f 00 00 00 80 b4 f7 cd 3f
       0.2511707544326782 0.23412185907363892
000130 00 00 00 00 7a a9 a8 bf 00 00 00 80 8c 76 cb 3f
       -0.04816800355911255 0.21455532312393188
000140 00 00 00 c0 bb 97 dc 3f 00 00 00 20 13 ac 90 bf
       0.4467610716819763 -0.016281412914395332
000150 00 00 00 a0 ad cd cb 3f 00 00 00 a0 d7 57 d7 3f
       0.21721430122852325 0.3647364675998688
000160 00 00 00 a0 6b 50 9c bf 00 00 00 00 93 42 cc 3f
       -0.027650529518723488 0.22078168392181396
000170 00 00 00 40 d6 e3 d3 3f 00 00 00 00 51 2e a4 bf
       0.3107810616493225 -0.0394158661365509
000180 00 00 00 e0 73 83 cc 3f 00 00 00 c0 dd dc d0 3f
       0.2227616161108017 0.26348060369491577
000190 00 00 00 40 34 99 a8 bf 00 00 00 80 3b 3f c7 3f
       -0.04804385453462601 0.18161720037460327
0001a0 00 00 00 e0 e3 49 de 3f 00 00 00 e0 c3 1a 98 bf
       0.47325989603996277 -0.023539600893855095
0001b0 00 00 00 40 09 7a c7 3f 00 00 00 20 87 1a da 3f
       0.18341174721717834 0.4078691303730011
0001c0 00 00 00 a0 85 42 a1 bf 00 00 00 60 ec 12 c8 3f
       -0.033710647374391556 0.18807749450206757
0001d0 00 00 00 c0 15 74 d7 3f 00 00 00 80 c5 9d a3 bf
       0.36646026372909546 -0.03831307590007782
0001e0 00 00 00 c0 c6 82 c8 3f 00 00 00 a0 da 10 d5 3f
       0.19149097800254822 0.3291536867618561
0001f0 00 00 00 20 e4 79 a5 bf
       -0.04194558039307594
