asl_dataset/B/B_20241123_174323_055118.npy (npy, 632 bytes, 1 tensors)

array f8 [21, 3]
0	0x3fcbbaae00000000	0.21663451194763184
1	0x3fe5401700000000	0.6640734672546387
2	0x3e9a1ba5c0000000	3.890394850714074e-07
3	0x3fd170e3a0000000	0.272515207529068
4	0x3fe3c7bd00000000	0.6181321144104004
5	0xbf9bc2d120000000	-0.027110354974865913
6	0x3fd3882b80000000	0.3051861524581909
7	0x3fe18d7140000000	0.5485159158706665
8	0xbfa2257c20000000	-0.03544223681092262
9	0x3fd1efed00000000	0.28026890754699707
10	0x3fdf3aaa80000000	0.4879556894302368
11	0xbfa55f38e0000000	-0.04174211248755455
12	0x3fce5f5ce0000000	0.23728524148464203
13	0x3fde895d40000000	0.4771340489387512
14	0xbfa88e5120000000	-0.0479607917368412
15	0x3fd1d78ac0000000	0.27878063917160034
16	0x3fdc873f00000000	0.4457547664642334
17	0xbf8327ad20000000	-0.00935302022844553
18	0x3fd20e3ba0000000	0.28211870789527893
19	0x3fd74d7b40000000	0.36410409212112427
20	0xbf9601a360000000	-0.02149062417447567
21	0x3fd1e2b040000000	0.27946096658706665
22	0x3fd419fa60000000	0.31408557295799255
23	0xbfa22f3080000000	-0.03551627695560455
24	0x3fd1a9b620000000	0.27598336338996887
25	0x3fd1115f80000000	0.2666853666305542
26	0xbfa84eeb00000000	-0.04747709631919861
27	0x3fcf2436e0000000	0.2432926744222641
28	0x3fdbf39560000000	0.4367421567440033
29	0xbf82ebf420000000	-0.009239108301699162
30	0x3fcfb9cde0000000	0.24785779416561127
31	0x3fd6394aa0000000	0.34724679589271545
32	0xbf93e82900000000	-0.019440308213233948
33	0x3fcfd44a60000000	0.24866609275341034
34	0x3fd2606ee0000000	0.2871358096599579
35	0xbfa17297c0000000	-0.03407739847898483
36	0x3fcfcda4a0000000	0.2484632283449173
37	0x3fcdd710e0000000	0.23312579095363617
38	0xbfa78cd020000000	-0.04599619284272194
39	0x3fcb175f20000000	0.21165074408054352
40	0x3fdcafe260000000	0.4482351243495941
41	0xbf8ac50bc0000000	-0.013071147724986076
42	0x3fcb85bcc0000000	0.2150188386440277
43	0x3fd75a7a00000000	0.3648972511291504
44	0xbf990d36e0000000	-0.024464471265673637
45	0x3fcc127800000000	0.2193136215209961
46	0x3fd3d4d240000000	0.3098645806312561
47	0xbfa2ee92a0000000	-0.036976415663957596
48	0x3fcc605780000000	0.2216901183128357
49	0x3fd0be4b20000000	0.261614590883255
50	0xbfa7a1a660000000	-0.0461551658809185
51	0x3fc6ddc700000000	0.1786431074142456
52	0x3fde738340000000	0.4758003354072571
53	0xbf94899de0000000	-0.020056216046214104
54	0x3fc72b8ac0000000	0.18101629614830017
55	0x3fda49b580000000	0.41074883937835693
56	0xbf9f3bd1e0000000	-0.030501632019877434
57	0x3fc7c3dcc0000000	0.18566474318504333
58	0x3fd78af740000000	0.36785680055618286
59	0xbfa2547620000000	-0.035800639539957047
60	0x3fc838f7a0000000	0.189238503575325
61	0x3fd509d640000000	0.3287253975868225
62	0xbfa48017e0000000	-0.040039774030447006
