asl_dataset/B/B_20241208_175051_345133.npy (npy, 632 bytes, 1 tensors)

array f8 [21, 3]
00000000: 0000 0060 a32c dc3f 0000 00c0 c1dd e83f
00000010: 0000 0000 6718 993e 0000 00c0 5073 e03f
00000020: 0000 00a0 1560 e73f 0000 00c0 34c0 96bf
00000030: 0000 0020 17f3 e13f 0000 0040 980c e33f
00000040: 0000 0080 0f3c 95bf 0000 0000 0379 e13f
00000050: 0000 0020 e5cc de3f 0000 0000 f296 92bf
00000060: 0000 00a0 f60b e03f 0000 0060 a6bc dc3f
00000070: 0000 00c0 c770 8ebf 0000 00e0 8e5c e13f
00000080: 0000 00e0 852e de3f 0000 00a0 84c2 763f
00000090: 0000 0020 b920 e23f 0000 0060 4bde d63f
000000a0: 0000 00e0 71ab 6cbf 0000 00a0 1b80 e23f
000000b0: 0000 00c0 f7fe d13f 0000 0020 88e8 8fbf
000000c0: 0000 0060 94c3 e23f 0000 00e0 1734 cb3f
000000d0: 0000 0080 0d42 9bbf 0000 00c0 a351 e03f
000000e0: 0000 0000 4965 dc3f 0000 0040 0f6f 703f
000000f0: 0000 00c0 c124 e13f 0000 00e0 e621 d43f
00000100: 0000 0000 0eef 70bf 0000 0020 62bd e13f
00000110: 0000 0020 b760 cd3f 0000 0020 69c5 90bf
00000120: 0000 0060 082f e23f 0000 00e0 d727 c43f
00000130: 0000 0020 521d 9bbf 0000 00c0 267d de3f
00000140: 0000 00e0 1a4e dc3f 0000 00e0 bdc8 65bf
00000150: 0000 00a0 39d3 df3f 0000 00e0 4247 d43f
00000160: 0000 0020 f588 8ebf 0000 0020 f081 e03f
00000170: 0000 00e0 037b ce3f 0000 0060 980a 9dbf
00000180: 0000 0000 dbe7 e03f 0000 0040 1a04 c63f
00000190: 0000 0040 5e5f a3bf 0000 0000 b71c dc3f
000001a0: 0000 0080 7a59 dd3f 0000 0060 f77c 89bf
000001b0: 0000 0060 d559 dd3f 0000 0040 5fcc d63f
000001c0: 0000 0040 834d 99bf 0000 00c0 a055 de3f
000001d0: 0000 00a0 4ca8 d23f 0000 00c0 89cd a0bf
000001e0: 0000 00c0 5c1c df3f 0000 00a0 74a8 cd3f
000001f0: 0000 00a0 8a49 a4bf
0.4402244985103607 0.7770699262619019 3.739494331966853e-07 0.5140765905380249 0.7304790616035461 -0.022217582911252975 0.5609241127967834 0.5952874422073364
-0.020736925303936005 0.5460219383239746 0.48125579953193665 -0.01815393567085266 0.5014603734016418 0.449014276266098 -0.014863548800349236 0.5425485968589783
0.4715895354747772 0.005556600634008646 0.5664945244789124 0.3573177754878998 -0.003499720012769103 0.5781381726264954 0.2811869978904724 -0.015580237843096256
0.5863744616508484 0.21252726018428802 -0.026619158685207367 0.5099657773971558 0.4436819553375244 0.004012164659798145 0.5357369184494019 0.3145692050457001
-0.004134230315685272 0.5543680787086487 0.229514017701149 -0.016378061845898628 0.5682412981987 0.15746591985225677 -0.02647903747856617 0.4763886332511902
0.44226714968681335 -0.0026591976638883352 0.4972671568393707 0.3168494403362274 -0.014909663237631321 0.5158615708351135 0.238129124045372 -0.028360730037093163
0.5283026695251465 0.1720001995563507 -0.03783697634935379 0.4392526149749756 0.45858633518218994 -0.012445385567843914 0.4586080014705658 0.3562238812446594
-0.024709749966859818 0.4739763140678406 0.29152217507362366 -0.032818131148815155 0.48610609769821167 0.23170335590839386 -0.039623577147722244
