asl_dataset/B/B_20241123_174319_236253.npy (npy, 632 bytes, 1 tensors)

array f8 [21, 3]
00000000: 0000 00c0 40a2 d33f 0000 0020 de73 e63f
00000010: 0000 0020 40c3 993e 0000 0020 54c3 d63f
00000020: 0000 0020 b0dd e53f 0000 0080 5f62 97bf
00000030: 0000 0000 541e d93f 0000 0060 b05e e43f
00000040: 0000 0000 6ffa a0bf 0000 0060 f404 d93f
00000050: 0000 00a0 eebb e23f 0000 00a0 be64 a5bf
00000060: 0000 00e0 b9d9 d63f 0000 0060 0364 e23f
00000070: 0000 00a0 5323 aabf 0000 0060 867f d83f
00000080: 0000 00e0 47fb e03f 0000 0040 5819 96bf
00000090: 0000 0080 ae78 d93f 0000 0060 891c dd3f
000000a0: 0000 0080 4f54 a2bf 0000 00c0 07d7 d93f
000000b0: 0000 0000 010f da3f 0000 00c0 9927 a9bf
000000c0: 0000 00a0 1d18 da3f 0000 0000 2b32 d73f
000000d0: 0000 0020 e0aa aebf 0000 00a0 fcae d63f
000000e0: 0000 00a0 6982 e03f 0000 0020 a558 98bf
000000f0: 0000 0060 b8d0 d73f 0000 0020 eb8d db3f
00000100: 0000 0040 ebfd a1bf 0000 00e0 d76b d83f
00000110: 0000 00c0 4bec d73f 0000 0040 564a a8bf
00000120: 0000 0080 9eda d83f 0000 0040 8fa9 d43f
00000130: 0000 0020 688e adbf 0000 00a0 4bc4 d43f
00000140: 0000 00e0 1495 e03f 0000 0080 f2ff 9cbf
00000150: 0000 00e0 b4b2 d53f 0000 0020 2012 dc3f
00000160: 0000 0040 f301 a4bf 0000 0040 7865 d63f
00000170: 0000 0040 f2e4 d83f 0000 00e0 1d1b a9bf
00000180: 0000 00c0 4bf3 d63f 0000 0000 8e09 d63f
00000190: 0000 0080 3c23 adbf 0000 00a0 fa89 d23f
000001a0: 0000 00a0 5410 e13f 0000 0080 0025 a2bf
000001b0: 0000 0000 5b3f d33f 0000 0020 9333 de3f
000001c0: 0000 0020 6925 a7bf 0000 0060 75d9 d33f
000001d0: 0000 0000 bfd1 db3f 0000 0080 2d61 a9bf
000001e0: 0000 00c0 e45e d43f 0000 00c0 c198 d93f
000001f0: 0000 0080 fc58 abbf
0.3067781329154968 0.7016440033912659 3.8389410406125535e-07 0.3556719124317169 0.6833115220069885 -0.022836200892925262 0.39247608184814453 0.6365587115287781
-0.033160656690597534 0.39092740416526794 0.5854409337043762 -0.041784245520830154 0.3570389449596405 0.5747086405754089 -0.05105077102780342 0.3827835023403168
0.5306739211082458 -0.021581057459115982 0.3979908227920532 0.4548667371273041 -0.03579948842525482 0.40374940633773804 0.4071657657623291 -0.04913025349378586
0.4077219069004059 0.36243700981140137 -0.05989742651581764 0.35443034768104553 0.5159195065498352 -0.023775653913617134 0.37211427092552185 0.43053701519966125
-0.035140372812747955 0.38158223032951355 0.37379735708236694 -0.04744214564561844 0.3883434534072876 0.3228490948677063 -0.05772710219025612 0.32448092103004456
0.5181984305381775 -0.028320111334323883 0.339032381772995 0.43860629200935364 -0.03907737880945206 0.34994322061538696 0.38897377252578735 -0.04903500899672508
0.35859960317611694 0.3443331718444824 -0.056909456849098206 0.28967157006263733 0.5332434773445129 -0.035438552498817444 0.30074191093444824 0.4718978703022003
-0.045207295566797256 0.31014761328697205 0.4346768856048584 -0.04956953227519989 0.3182918429374695 0.3999485373497009 -0.05341328680515289
