asl_dataset/B/B_20241208_175049_545886.npy (npy, 632 bytes, 1 tensors)

array f8 [21, 3]
0.3861348330974579 0.6631429195404053 4.0602105855214177e-07 0.4411472976207733 0.5924403667449951 -0.021262966096401215 0.46197256445884705 0.4611952304840088
-0.02116919495165348 0.4309244453907013 0.37109360098838806 -0.01933831162750721 0.38656529784202576 0.3671874403953552 -0.016344599425792694 0.43899089097976685
0.37204980850219727 0.0034061733167618513 0.44636252522468567 0.26018664240837097 -0.0029799083713442087 0.44756850600242615 0.190678209066391 -0.012629036791622639
0.4466026723384857 0.13012845814228058 -0.0213017500936985 0.40410080552101135 0.36042729020118713 0.004021201282739639 0.4130704998970032 0.24199962615966797
-0.00026004278333857656 0.4192650020122528 0.1629548817873001 -0.009701985865831375 0.42324456572532654 0.09785807877779007 -0.017712535336613655 0.37254342436790466
0.3705472946166992 0.0002830367302522063 0.3773060739040375 0.2613869309425354 -0.0064939516596496105 0.38683393597602844 0.19025933742523193 -0.016774803400039673
0.3928737938404083 0.13380946218967438 -0.024546438828110695 0.3404434025287628 0.3951028883457184 -0.006376315373927355 0.3447521924972534 0.3069935739040375
-0.012936912477016449 0.35094380378723145 0.2499435991048813 -0.01749231480062008 0.3562474250793457 0.19904880225658417 -0.021814288571476936
00000000: 0000 00e0 6eb6 d83f 0000 0080 7738 e53f
00000010: 0000 0080 633f 9b3e 0000 00e0 c13b dc3f
00000020: 0000 0080 45f5 e23f 0000 0080 f5c5 95bf
00000030: 0000 0060 f590 dd3f 0000 0000 3984 dd3f
00000040: 0000 00a0 60ad 95bf 0000 0020 4494 db3f
00000050: 0000 0060 ffbf d73f 0000 0020 6ccd 93bf
00000060: 0000 0060 7cbd d83f 0000 00c0 ff7f d73f
00000070: 0000 0080 a3bc 90bf 0000 0040 6d18 dc3f
00000080: 0000 0000 aacf d73f 0000 0060 43e7 6b3f
00000090: 0000 0020 3491 dc3f 0000 00e0 e5a6 d03f
000000a0: 0000 0020 5269 68bf 0000 0060 f6a4 dc3f
000000b0: 0000 00c0 2468 c83f 0000 00a0 40dd 89bf
000000c0: 0000 0060 2395 dc3f 0000 00a0 0ca8 c03f
000000d0: 0000 0040 20d0 95bf 0000 00a0 c9dc d93f
000000e0: 0000 00a0 3d11 d73f 0000 0000 8978 703f
000000f0: 0000 0040 bf6f da3f 0000 0000 d8f9 ce3f
00000100: 0000 0040 cb0a 31bf 0000 00e0 3cd5 da3f
00000110: 0000 00a0 b4db c43f 0000 0080 a2de 83bf
00000120: 0000 0060 7016 db3f 0000 0020 3a0d b93f
00000130: 0000 0020 3c23 92bf 0000 0060 c0d7 d73f
00000140: 0000 0000 0cb7 d73f 0000 0080 918c 323f
00000150: 0000 0060 c825 d83f 0000 0040 90ba d03f
00000160: 0000 00e0 6699 7abf 0000 0020 e3c1 d83f
00000170: 0000 0000 6b5a c83f 0000 0000 6a2d 91bf
00000180: 0000 0020 d824 d93f 0000 0020 ab20 c13f
00000190: 0000 00a0 b322 99bf 0000 0020 d3c9 d53f
000001a0: 0000 00a0 5d49 d93f 0000 0020 0d1e 7abf
000001b0: 0000 0080 6b10 d63f 0000 0060 c8a5 d33f
000001c0: 0000 0000 ab7e 8abf 0000 0000 dd75 d63f
000001d0: 0000 00e0 26fe cf3f 0000 0060 81e9 91bf
000001e0: 0000 0000 c2cc d63f 0000 0060 6e7a c93f
000001f0: 0000 0020 7c56 96bf
