asl_dataset/B/B_20241208_175022_464868.npy (npy, 632 bytes, 1 tensors)

array f8 [21, 3]
0.5279409289360046 0.791574239730835 3.769531531361281e-07 0.5857195854187012 0.7362415194511414 -0.034168779850006104 0.6249707341194153 0.6229299306869507
-0.0453278012573719 0.612806499004364 0.5150710940361023 -0.053605083376169205 0.5736345052719116 0.4549145996570587 -0.061827030032873154 0.5980046987533569
0.47101256251335144 -0.020188411697745323 0.606873631477356 0.3437049388885498 -0.04058526083827019 0.6061978340148926 0.2618730068206787 -0.05982446298003197
0.6049545407295227 0.18466760218143463 -0.07521451264619827 0.5624399781227112 0.45418113470077515 -0.01939275860786438 0.5720601677894592 0.31186383962631226
-0.03742220997810364 0.5746002793312073 0.21460963785648346 -0.05784260854125023 0.5766962766647339 0.12454810738563538 -0.07392039149999619 0.5296604633331299
0.4684453308582306 -0.02314707636833191 0.5367944240570068 0.33505651354789734 -0.04221329092979431 0.5427780151367188 0.2500069737434387 -0.05995117500424385
0.5469855666160583 0.1725221574306488 -0.07292294502258301 0.4952790141105652 0.5067724585533142 -0.030506828799843788 0.5013831257820129 0.4096900224685669
-0.049225371330976486 0.5091588497161865 0.34469348192214966 -0.060768309980630875 0.5165952444076538 0.28144571185112 -0.06939078122377396
00000000: 0000 0060 e4e4 e03f 0000 0080 9354 e93f
00000010: 0000 0080 014c 993e 0000 0000 37be e23f
00000020: 0000 0060 4a8f e73f 0000 0000 927e a1bf
00000030: 0000 00a0 c2ff e33f 0000 00c0 0aef e33f
00000040: 0000 00a0 3435 a7bf 0000 0060 1c9c e33f
00000050: 0000 0060 767b e03f 0000 0020 2072 abbf
00000060: 0000 00c0 365b e23f 0000 0020 521d dd3f
00000070: 0000 00e0 caa7 afbf 0000 00c0 da22 e33f
00000080: 0000 00e0 1125 de3f 0000 0060 45ac 94bf
00000090: 0000 0040 826b e33f 0000 0000 43ff d53f
000000a0: 0000 0060 97c7 a4bf 0000 0000 f965 e33f
000000b0: 0000 0000 87c2 d03f 0000 00e0 4fa1 aebf
000000c0: 0000 00a0 c95b e33f 0000 0020 30a3 c73f
000000d0: 0000 0020 4241 b3bf 0000 0020 82ff e13f
000000e0: 0000 00c0 4d11 dd3f 0000 0000 b2db 93bf
000000f0: 0000 0020 514e e23f 0000 00c0 93f5 d33f
00000100: 0000 0000 0129 a3bf 0000 0020 2063 e23f
00000110: 0000 0020 5478 cb3f 0000 00e0 8b9d adbf
00000120: 0000 00c0 4b74 e23f 0000 0080 62e2 bf3f
00000130: 0000 0060 72ec b2bf 0000 0080 faf2 e03f
00000140: 0000 0020 02fb dd3f 0000 0000 deb3 97bf
00000150: 0000 0080 6b2d e13f 0000 00e0 9071 d53f
00000160: 0000 0000 fb9c a5bf 0000 0000 705e e13f
00000170: 0000 0040 1d00 d03f 0000 00a0 ebb1 aebf
00000180: 0000 00e0 e780 e13f 0000 00c0 3415 c63f
00000190: 0000 0000 14ab b2bf 0000 00c0 a6b2 df3f
000001a0: 0000 00e0 7a37 e03f 0000 00a0 2e3d 9fbf
000001b0: 0000 00a0 540b e03f 0000 0080 5c38 da3f
000001c0: 0000 0060 1134 a9bf 0000 0080 074b e03f
000001d0: 0000 0040 750f d63f 0000 0020 061d afbf
000001e0: 0000 00c0 f287 e03f 0000 00e0 3403 d23f
000001f0: 0000 0020 98c3 b1bf
