asl_dataset/B/B_20241208_175034_368235.npy (npy, 632 bytes, 1 tensors)

array f8 [21, 3]
000000 00 00 00 e0 06 1a de 3f 00 00 00 e0 da 8e e8 3f
       0.4703385531902313 0.7674383521080017
000010 00 00 00 60 6c 45 97 3e 00 00 00 60 75 8a e0 3f
       3.467676776836015e-07 0.5169016718864441
000020 00 00 00 00 2f 0e e6 3f 00 00 00 60 1f 91 93 bf
       0.6892313957214355 -0.019108286127448082
000030 00 00 00 60 d6 0e e1 3f 00 00 00 20 bd 8b e2 3f
       0.5330612063407898 0.5795579552650452
000040 00 00 00 a0 31 2d 96 bf 00 00 00 00 34 ea df 3f
       -0.02165677584707737 0.4986696243286133
000050 00 00 00 e0 8d 5c e0 3f 00 00 00 00 df e1 97 bf
       0.5112981200218201 -0.023322567343711853
000060 00 00 00 80 98 29 dd 3f 00 00 00 00 29 d4 e0 3f
       0.455663800239563 0.5258984565734863
000070 00 00 00 40 f2 fc 98 bf 00 00 00 e0 4d d9 e0 3f
       -0.02440241351723671 0.5265263915061951
000080 00 00 00 00 f0 5b df 3f 00 00 00 e0 d2 cf 61 3f
       0.4899864196777344 0.002174293389543891
000090 00 00 00 e0 b2 01 e1 3f 00 00 00 60 05 a5 d8 3f
       0.5314573645591736 0.38507208228111267
0000a0 00 00 00 c0 12 33 6e bf 00 00 00 c0 6f f1 e0 3f
       -0.0036864629946649075 0.5294722318649292
0000b0 00 00 00 60 24 84 d4 3f 00 00 00 00 67 3b 8b bf
       0.3205653131008148 -0.01329689472913742
0000c0 00 00 00 60 8d cf e0 3f 00 00 00 a0 9d b1 d0 3f
       0.525335967540741 0.2608408033847809
0000d0 00 00 00 c0 eb f1 96 bf 00 00 00 80 0b a3 df 3f
       -0.022407229989767075 0.49432647228240967
0000e0 00 00 00 40 15 b2 de 3f 00 00 00 00 30 5b 45 3f
       0.4796193242073059 0.0006517395377159119
0000f0 00 00 00 a0 80 ef df 3f 00 00 00 80 08 a6 d7 3f
       0.49899306893348694 0.36950886249542236
000100 00 00 00 80 f4 17 64 bf 00 00 00 c0 4e 00 e0 3f
       -0.002452828921377659 0.5000375509262085
000110 00 00 00 60 63 ed d2 3f 00 00 00 20 95 0a 89 bf
       0.2957390248775482 -0.012227215804159641
000120 00 00 00 40 08 f6 df 3f 00 00 00 a0 7c 63 cd 3f
       0.4993916153907776 0.22959859669208527
000130 00 00 00 c0 17 96 95 bf 00 00 00 60 47 bb dd 3f
       -0.021080370992422104 0.4645555913448334
000140 00 00 00 40 b5 88 df 3f 00 00 00 80 e3 a5 72 bf
       0.49271899461746216 -0.004552735015749931
000150 00 00 00 00 25 d0 dd 3f 00 00 00 a0 80 f6 d8 3f
       0.46582913398742676 0.39004531502723694
000160 00 00 00 00 81 14 81 bf 00 00 00 20 30 29 de 3f
       -0.008339889347553253 0.47126391530036926
000170 00 00 00 60 b8 af d4 3f 00 00 00 c0 eb 6d 92 bf
       0.32322511076927185 -0.017997439950704575
000180 00 00 00 20 2e 57 de 3f 00 00 00 00 54 05 d1 3f
       0.47407105565071106 0.26595020294189453
000190 00 00 00 e0 bb a8 9a bf 00 00 00 40 fe d6 db 3f
       -0.026034293696284294 0.4349971413612366
0001a0 00 00 00 40 2f ab e0 3f 00 00 00 c0 0f fe 89 bf
       0.5208965539932251 -0.012691615149378777
0001b0 00 00 00 c0 60 c9 db 3f 00 00 00 20 68 d1 db 3f
       0.4341661334037781 0.43465617299079895
0001c0 00 00 00 e0 d4 30 8f bf 00 00 00 20 78 13 dc 3f
       -0.01522985752671957 0.4386883080005646
0001d0 00 00 00 60 53 45 d8 3f 00 00 00 00 e6 ed 91 bf
       0.3792313039302826 -0.01750907301902771
0001e0 00 00 00 e0 48 61 dc 3f 00 00 00 40 8c 2a d5 3f
       0.443437784910202 0.330721914768219
0001f0 00 00 00 80 43 52 95 bf
       -0.020821623504161835
