asl_dataset/B/B_20241208_175040_007043.npy (npy, 632 bytes, 1 tensors)

array f8 [21, 3]
0	0x3fde0c0d80000000	0.46948564052581787
1	0x3feb5b92c0000000	0.8549283742904663
2	0x3e9b3b1f00000000	4.0577265281172004e-07
3	0x3fe0ac8040000000	0.5210572481155396
4	0x3fe8efc3a0000000	0.7792680859565735
5	0xbf96d7d880000000	-0.022307761013507843
6	0x3fe16f39c0000000	0.5448273420333862
7	0x3fe52561e0000000	0.6608132719993591
8	0xbf9a6620c0000000	-0.02578021213412285
9	0x3fe0375ce0000000	0.5067581534385681
10	0x3fe2bd51c0000000	0.5856102705001831
11	0xbf9c4d1280000000	-0.02763775736093521
12	0x3fdd6e5240000000	0.4598584771156311
13	0x3fe33e3280000000	0.6013424396514893
14	0xbf9dbd9620000000	-0.02904352732002735
15	0x3fe10d8500000000	0.532900333404541
16	0x3fe1cd71a0000000	0.5563285946846008
17	0xbf5170e620000000	-0.0010645148577168584
18	0x3fe13b94c0000000	0.5385230779647827
19	0x3fdc5a8c80000000	0.44302666187286377
20	0xbf8121a180000000	-0.008364927023649216
21	0x3fe131d320000000	0.5373321175575256
22	0x3fd7d37dc0000000	0.372283399105072
23	0xbf933188a0000000	-0.018743643537163734
24	0x3fe11dc9a0000000	0.5348861813545227
25	0x3fd3c9b520000000	0.30918624997138977
26	0xbf9d0f2620000000	-0.02837810106575489
27	0x3fdfe22b00000000	0.49817919731140137
28	0x3fe16b0b20000000	0.544316828250885
29	0xbf62fac1e0000000	-0.0023168360348790884
30	0x3fe0224540000000	0.5041834115982056
31	0x3fdb4b5060000000	0.4264717996120453
32	0xbf7b21efc0000000	-0.0066241612657904625
33	0x3fe03615a0000000	0.5066021084785461
34	0x3fd60fa660000000	0.344705194234848
35	0xbf91e6d700000000	-0.017482146620750427
36	0x3fe03f32e0000000	0.5077146887779236
37	0x3fd18aa020000000	0.27408602833747864
38	0xbf9bb38540000000	-0.027052003890275955
39	0x3fddde5280000000	0.4666944742202759
40	0x3fe1dac3a0000000	0.5579546093940735
41	0xbf7f4cdf20000000	-0.007641669828444719
42	0x3fde08f000000000	0.4692955017089844
43	0x3fdc845b20000000	0.44557836651802063
44	0xbf8bba9100000000	-0.013539440929889679
45	0x3fde72a880000000	0.4757481813430786
46	0x3fd7b68000000000	0.370513916015625
47	0xbf9a86cec0000000	-0.025904875248670578
48	0x3fdebb1b80000000	0.4801701307296753
49	0x3fd39fa8c0000000	0.3066198229789734
50	0xbfa24c8b20000000	-0.03574023023247719
51	0x3fdbd60a00000000	0.434938907623291
52	0x3fe2dc5260000000	0.589394748210907
53	0xbf90634260000000	-0.016003644093871117
54	0x3fdbc545c0000000	0.43391555547714233
55	0x3fe0000160000000	0.5000006556510925
56	0xbf96222a40000000	-0.02161470428109169
57	0x3fdc0e48a0000000	0.43837180733680725
58	0x3fdc32c8a0000000	0.44059959053993225
59	0xbf9b226be0000000	-0.026498494669795036
60	0x3fdc5961a0000000	0.4429554045200348
61	0x3fd8c5a440000000	0.38706308603286743
62	0xbfa0202dc0000000	-0.03149550408124924
