asl_dataset/B/B_20241208_175022_561835.npy (npy, 632 bytes, 1 tensors)

array f8 [21, 3]
000000 00 00 00 a0 d0 dd e0 3f 00 00 00 40 5e 87 e9 3f
       0.5270770192146301 0.7977744340896606
000010 00 00 00 40 74 ff 9b 3e 00 00 00 c0 6c 9f e2 3f
       4.172007379565912e-07 0.5819610357284546
000020 00 00 00 c0 b0 d0 e7 3f 00 00 00 c0 da a6 a2 bf
       0.7442249059677124 -0.03642924875020981
000030 00 00 00 a0 72 ca e3 3f 00 00 00 60 26 3f e4 3f
       0.618462860584259 0.632708728313446
000040 00 00 00 60 f1 59 a9 bf 00 00 00 40 b7 5b e3 3f
       -0.04951433464884758 0.6049457788467407
000050 00 00 00 00 4d d1 e0 3f 00 00 00 60 f8 58 ae bf
       0.5255494117736816 -0.059272538870573044
000060 00 00 00 00 38 18 e2 3f 00 00 00 c0 e0 d5 dd 3f
       0.5654563903808594 0.4661790728569031
000070 00 00 00 e0 2c a4 b1 bf 00 00 00 20 ea e9 e2 3f
       -0.0689113661646843 0.5910540223121643
000080 00 00 00 a0 cc 4c de 3f 00 00 00 40 73 c6 99 bf
       0.47343745827674866 -0.02517108991742134
000090 00 00 00 20 cd 1e e3 3f 00 00 00 00 50 d2 d5 3f
       0.5975099205970764 0.3409614562988281
0000a0 00 00 00 a0 1b ef a7 bf 00 00 00 00 b0 14 e3 3f
       -0.04674612358212471 0.5962753295898438
0000b0 00 00 00 a0 fa 6e d0 3f 00 00 00 c0 60 01 b1 bf
       0.25677362084388733 -0.06642727553844452
0000c0 00 00 00 a0 01 05 e3 3f 00 00 00 c0 63 b0 c6 3f
       0.5943611264228821 0.1772579848766327
0000d0 00 00 00 00 8a f3 b4 bf 00 00 00 c0 a7 c1 e1 3f
       -0.0818411111831665 0.5548895597457886
0000e0 00 00 00 80 f8 66 dd 3f 00 00 00 c0 e3 f2 97 bf
       0.45940983295440674 -0.02338748797774315
0000f0 00 00 00 a0 c2 f8 e1 3f 00 00 00 40 e0 17 d4 3f
       0.5616162419319153 0.3139572739601135
000100 00 00 00 60 8a 70 a5 bf 00 00 00 40 a0 fe e1 3f
       -0.0418742410838604 0.562332272529602
000110 00 00 00 a0 56 84 cb 3f 00 00 00 00 40 ed af bf
       0.21497614681720734 -0.06235694885253906
000120 00 00 00 40 ab 01 e2 3f 00 00 00 00 f7 83 bf 3f
       0.5627037286758423 0.12310737371444702
000130 00 00 00 60 6d 14 b4 bf 00 00 00 a0 c4 b5 e0 3f
       -0.07843669503927231 0.5221884846687317
000140 00 00 00 60 42 70 de 3f 00 00 00 c0 7d a3 9a bf
       0.47560176253318787 -0.026014294475317
000150 00 00 00 e0 50 d5 e0 3f 00 00 00 a0 b7 da d5 3f
       0.5260395407676697 0.3414744436740875
000160 00 00 00 a0 33 d1 a6 bf 00 00 00 60 1d f2 e0 3f
       -0.044564832001924515 0.5295550227165222
000170 00 00 00 00 45 58 d0 3f 00 00 00 a0 eb 97 af bf
       0.255387544631958 -0.06170593574643135
000180 00 00 00 20 0f 06 e1 3f 00 00 00 60 5d a4 c6 3f
       0.5319896340370178 0.1768910139799118
000190 00 00 00 40 71 07 b3 bf 00 00 00 20 d6 41 df 3f
       -0.07433231174945831 0.4883933365345001
0001a0 00 00 00 60 f0 79 e0 3f 00 00 00 20 d9 9f a0 bf
       0.5148851275444031 -0.03246954455971718
0001b0 00 00 00 40 ab 70 df 3f 00 00 00 e0 fb bd da 3f
       0.49125176668167114 0.4178456962108612
0001c0 00 00 00 60 12 c2 a9 bf 00 00 00 60 39 cc df 3f
       -0.050308775156736374 0.49683985114097595
0001d0 00 00 00 80 88 92 d6 3f 00 00 00 80 76 55 af bf
       0.35269367694854736 -0.06119890511035919
0001e0 00 00 00 c0 2a 13 e0 3f 00 00 00 80 94 84 d2 3f
       0.5023397207260132 0.2893420457839966
0001f0 00 00 00 20 b1 be b1 bf
       -0.06931597739458084
