asl_dataset/B/B_20241208_175041_439600.npy (npy, 632 bytes, 1 tensors)

array f8 [21, 3]
0	0x3fdbf9ba60000000	0.43711718916893005
1	0x3febba5760000000	0.866496741771698
2	0x3e9e01cdc0000000	4.471398256100656e-07
3	0x3fdfa36b20000000	0.49434927105903625
4	0x3fe8e5c2a0000000	0.7780469059944153
5	0xbf991616c0000000	-0.02449832484126091
6	0x3fe0a9ecc0000000	0.5207427740097046
7	0x3fe4b0c1c0000000	0.6465767621994019
8	0xbf9d69b500000000	-0.02872355282306671
9	0x3fdebf4480000000	0.48042404651641846
10	0x3fe20bf0c0000000	0.5639575719833374
11	0xbfa01a2d80000000	-0.03144972026348114
12	0x3fdb78b300000000	0.4292418956756592
13	0x3fe2a78260000000	0.5829479098320007
14	0xbfa13b3920000000	-0.03365496173501015
15	0x3fe0581340000000	0.5107513666152954
16	0x3fe0c450c0000000	0.5239642858505249
17	0xbec3cc3760000000	-2.360072130613844e-06
18	0x3fe0996620000000	0.5187254548072815
19	0x3fd94ab460000000	0.39518460631370544
20	0xbf806cfec0000000	-0.008020391687750816
21	0x3fe08dfce0000000	0.5173324942588806
22	0x3fd42c6f00000000	0.3152120113372803
23	0xbf94582320000000	-0.019867466762661934
24	0x3fe07553a0000000	0.5143221020698547
25	0x3fcf135160000000	0.2427770346403122
26	0xbf9fc6f5a0000000	-0.03103240765631199
27	0x3fde2caea0000000	0.4714771807193756
28	0x3fe05c6840000000	0.5112801790237427
29	0xbf60a65600000000	-0.0020324401557445526
30	0x3fdebb8f80000000	0.4801977872848511
31	0x3fd8300860000000	0.3779316842556
32	0xbf7be49200000000	-0.0068097785115242004
33	0x3fdeee6240000000	0.48329979181289673
34	0x3fd25bfb60000000	0.28686413168907166
35	0xbf93ba4740000000	-0.01926528289914131
36	0x3fdf048b40000000	0.4846523404121399
37	0x3fcaa0b5c0000000	0.20802947878837585
38	0xbf9ef90880000000	-0.030246861279010773
39	0x3fdbe5fc80000000	0.43591225147247314
40	0x3fe0e63ac0000000	0.5281041860580444
41	0xbf81b18e00000000	-0.008639439940452576
42	0x3fdc40fce0000000	0.4414665400981903
43	0x3fd9c2b960000000	0.40251001715660095
44	0xbf8e3f8020000000	-0.014769555069506168
45	0x3fdcc22940000000	0.44935065507888794
46	0x3fd43783a0000000	0.31588831543922424
47	0xbf9d9db960000000	-0.028921982273459435
48	0x3fdd171280000000	0.4545332193374634
49	0x3fcef4ac00000000	0.24184179306030273
50	0xbfa4a87860000000	-0.04034782573580742
51	0x3fd9aa9ac0000000	0.40103787183761597
52	0x3fe21acfc0000000	0.5657728910446167
53	0xbf932e0d60000000	-0.018730362877249718
54	0x3fd9b24fe0000000	0.40150830149650574
55	0x3fddc466e0000000	0.4651124179363251
56	0xbf98aa5600000000	-0.02408728003501892
57	0x3fda0de560000000	0.4070981442928314
58	0x3fd97193a0000000	0.39755716919898987
59	0xbf9dcf9220000000	-0.029112132266163826
60	0x3fda6bc4a0000000	0.41282764077186584
61	0x3fd5934820000000	0.3371143639087677
62	0xbfa1b90fc0000000	-0.034615032374858856
