asl_dataset/B/B_20241123_174320_214500.npy (npy, 632 bytes, 1 tensors)

array f8 [21, 3]
0	0x3fcbd41020000000	0.217409148812294
1	0x3fe5183f60000000	0.6592099070549011
2	0x3e9a66ac80000000	3.934065944122267e-07
3	0x3fd16861a0000000	0.2719959318637848
4	0x3fe3974de0000000	0.6122197508811951
5	0xbf99d82d00000000	-0.025238707661628723
6	0x3fd36d93a0000000	0.30356302857398987
7	0x3fe156d600000000	0.5418500900268555
8	0xbfa043c320000000	-0.03176698461174965
9	0x3fd1bd9080000000	0.2771950960159302
10	0x3fded1ce80000000	0.4815555810928345
11	0xbfa2904000000000	-0.03625679016113281
12	0x3fce1ad7c0000000	0.23519417643547058
13	0x3fde462a40000000	0.47303253412246704
14	0xbfa4cd0e60000000	-0.04062695428729057
15	0x3fd1e27fe0000000	0.2794494330883026
16	0x3fdc441f00000000	0.44165778160095215
17	0xbf76ed8060000000	-0.005597592797130346
18	0x3fd2476240000000	0.28560692071914673
19	0x3fd7306980000000	0.3623298406600952
20	0xbf9031f980000000	-0.01581563800573349
21	0x3fd2379760000000	0.2846430242061615
22	0x3fd400d9c0000000	0.31255191564559937
23	0xbf9d754c00000000	-0.028767764568328857
24	0x3fd20c2f00000000	0.2819936275482178
25	0x3fd107f580000000	0.26611077785491943
26	0xbfa46bb060000000	-0.03988410159945488
27	0x3fcf4ed860000000	0.24459366500377655
28	0x3fdbaf6840000000	0.43258100748062134
29	0xbf75c516c0000000	-0.005314911715686321
30	0x3fd022fd20000000	0.2521355450153351
31	0x3fd6305e40000000	0.3467021584510803
32	0xbf8b07aea0000000	-0.013198246248066425
33	0x3fd04da7a0000000	0.2547396719455719
34	0x3fd2733c20000000	0.2882833778858185
35	0xbf9b525b40000000	-0.02668135240674019
36	0x3fd054de60000000	0.2551799714565277
37	0x3fce449c40000000	0.2364688217639923
38	0xbfa354d680000000	-0.03775663673877716
39	0x3fcb4ba200000000	0.21324563026428223
40	0x3fdc6aed60000000	0.44402632117271423
41	0xbf82286200000000	-0.008866086602210999
42	0x3fcbb95ba0000000	0.2165941745042801
43	0x3fd76bbd40000000	0.36595088243484497
44	0xbf92c10900000000	-0.01831449568271637
45	0x3fcc7cb3e0000000	0.22255562245845795
46	0x3fd40cf0c0000000	0.3132898211479187
47	0xbf9f0da9e0000000	-0.03032555989921093
48	0x3fccf4c9a0000000	0.22622032463550568
49	0x3fd12e6500000000	0.26845669746398926
50	0xbfa40c8e00000000	-0.03915828466415405
51	0x3fc712adc0000000	0.18025752902030945
52	0x3fde2fb840000000	0.47166258096694946
53	0xbf8f98e420000000	-0.015428335405886173
54	0x3fc778e4c0000000	0.18337687849998474
55	0x3fda3b9f20000000	0.40988901257514954
56	0xbf98a49b20000000	-0.024065421894192696
57	0x3fc8427680000000	0.18952828645706177
58	0x3fd79d9b80000000	0.3689945936203003
59	0xbf9d336d40000000	-0.028516490012407303
60	0x3fc8e7cb80000000	0.19457381963729858
61	0x3fd54dcba0000000	0.33287325501441956
62	0xbfa07947c0000000	-0.03217529505491257
