asl_dataset/B/B_20241123_174322_395648.npy (npy, 632 bytes, 1 tensors)

array f8 [21, 3]
0	0x3fcb6381c0000000	0.2139742076396942
1	0x3fe51d3d20000000	0.6598191857337952
2	0x3e99aa0060000000	3.8242441746660916e-07
3	0x3fd1385880000000	0.2690640687942505
4	0x3fe3ad9c40000000	0.6149426698684692
5	0xbf9b28aa80000000	-0.02652231603860855
6	0x3fd3475120000000	0.3012278378009796
7	0x3fe167a480000000	0.5439016819000244
8	0xbfa1798100000000	-0.03413012623786926
9	0x3fd198f9a0000000	0.2749618589878082
10	0x3fdee71d20000000	0.48285606503486633
11	0xbfa45b61c0000000	-0.03975968807935715
12	0x3fcdb78460000000	0.23216299712657928
13	0x3fde50e9c0000000	0.473688542842865
14	0xbfa743ea40000000	-0.04544002562761307
15	0x3fd1b60a80000000	0.27673590183258057
16	0x3fdc1fe800000000	0.43944740295410156
17	0xbf821dfa20000000	-0.008846239186823368
18	0x3fd1f0b800000000	0.2803173065185547
19	0x3fd6d5b440000000	0.35679346323013306
20	0xbf950d7640000000	-0.020559165626764297
21	0x3fd1cb6140000000	0.2780383229255676
22	0x3fd38e1480000000	0.3055468797683716
23	0xbfa194e120000000	-0.03433898463845253
24	0x3fd1974480000000	0.27485764026641846
25	0x3fd07bb780000000	0.25755107402801514
26	0xbfa7a1d8a0000000	-0.046156663447618484
27	0x3fced1a900000000	0.24077332019805908
28	0x3fdb852020000000	0.43000033497810364
29	0xbf8296a580000000	-0.009076397866010666
30	0x3fcf7a5300000000	0.24592053890228271
31	0x3fd5cae600000000	0.34050893783569336
32	0xbf93613880000000	-0.018925555050373077
33	0x3fcf9cb240000000	0.24696949124336243
34	0x3fd1e17940000000	0.27938681840896606
35	0xbfa13ca5e0000000	-0.03366583213210106
36	0x3fcf945f80000000	0.2467154860496521
37	0x3fccc561e0000000	0.22477363049983978
38	0xbfa76e29e0000000	-0.045762356370687485
39	0x3fcab20280000000	0.20855742692947388
40	0x3fdc3aa320000000	0.44107893109321594
41	0xbf8b057d20000000	-0.013194062747061253
42	0x3fcb275b60000000	0.2121385782957077
43	0x3fd6f2a0e0000000	0.35855886340141296
44	0xbf98ed88c0000000	-0.024343620985746384
45	0x3fcbbfb1e0000000	0.21678756177425385
46	0x3fd3623780000000	0.30286967754364014
47	0xbfa3404640000000	-0.037599749863147736
48	0x3fcc1457c0000000	0.21937081217765808
49	0x3fd04c99a0000000	0.2546752989292145
50	0xbfa840ca80000000	-0.04736931622028351
51	0x3fc65b2900000000	0.17465698719024658
52	0x3fddfae920000000	0.46843937039375305
53	0xbf94e83fa0000000	-0.02041720785200596
54	0x3fc6b55500000000	0.17740881443023682
55	0x3fd9c43680000000	0.40260088443756104
56	0xbf9f69af40000000	-0.030676592141389847
57	0x3fc7660a40000000	0.1828015148639679
58	0x3fd6fce880000000	0.3591862916946411
59	0xbfa2a60780000000	-0.03642295300960541
60	0x3fc7f7eee0000000	0.18725381791591644
61	0x3fd47bbe20000000	0.3200526535511017
62	0xbfa50db860000000	-0.04112030193209648
